models/best_nca_pathmnist.pth (torch, 46170 bytes, 11 tensors)

sobel_x f4 [16, 1, 3, 3]
-1.0 0.0 1.0 -2.0 0.0 2.0 -1.0 0.0
1.0 -1.0 0.0 1.0 -2.0 0.0 2.0 -1.0
0.0 1.0 -1.0 0.0 1.0 -2.0 0.0 2.0
-1.0 0.0 1.0 -1.0 0.0 1.0 -2.0 0.0
2.0 -1.0 0.0 1.0 -1.0 0.0 1.0 -2.0
0.0 2.0 -1.0 0.0 1.0 -1.0 0.0 1.0
-2.0 0.0 2.0 -1.0 0.0 1.0 -1.0 0.0
1.0 -2.0 0.0 2.0 -1.0 0.0 1.0 -1.0
0.0 1.0 -2.0 0.0 2.0 -1.0 0.0 1.0
-1.0 0.0 1.0 -2.0 0.0 2.0 -1.0 0.0
1.0 -1.0 0.0 1.0 -2.0 0.0 2.0 -1.0
0.0 1.0 -1.0 0.0 1.0 -2.0 0.0 2.0
-1.0 0.0 1.0 -1.0 0.0 1.0 -2.0 0.0
2.0 -1.0 0.0 1.0 -1.0 0.0 1.0 -2.0
0.0 2.0 -1.0 0.0 1.0 -1.0 0.0 1.0
-2.0 0.0 2.0 -1.0 0.0 1.0 -1.0 0.0
1.0 -2.0 0.0 2.0 -1.0 0.0 1.0 -1.0
0.0 1.0 -2.0 0.0 2.0 -1.0 0.0 1.0
00000000: 0000 80bf 0000 0000 0000 803f 0000 00c0
00000010: 0000 0000 0000 0040 0000 80bf 0000 0000
00000020: 0000 803f 0000 80bf 0000 0000 0000 803f
00000030: 0000 00c0 0000 0000 0000 0040 0000 80bf
00000040: 0000 0000 0000 803f 0000 80bf 0000 0000
00000050: 0000 803f 0000 00c0 0000 0000 0000 0040
00000060: 0000 80bf 0000 0000 0000 803f 0000 80bf
00000070: 0000 0000 0000 803f 0000 00c0 0000 0000
00000080: 0000 0040 0000 80bf 0000 0000 0000 803f
00000090: 0000 80bf 0000 0000 0000 803f 0000 00c0
000000a0: 0000 0000 0000 0040 0000 80bf 0000 0000
000000b0: 0000 803f 0000 80bf 0000 0000 0000 803f
000000c0: 0000 00c0 0000 0000 0000 0040 0000 80bf
000000d0: 0000 0000 0000 803f 0000 80bf 0000 0000
000000e0: 0000 803f 0000 00c0 0000 0000 0000 0040
000000f0: 0000 80bf 0000 0000 0000 803f 0000 80bf
00000100: 0000 0000 0000 803f 0000 00c0 0000 0000
00000110: 0000 0040 0000 80bf 0000 0000 0000 803f
00000120: 0000 80bf 0000 0000 0000 803f 0000 00c0
00000130: 0000 0000 0000 0040 0000 80bf 0000 0000
00000140: 0000 803f 0000 80bf 0000 0000 0000 803f
00000150: 0000 00c0 0000 0000 0000 0040 0000 80bf
00000160: 0000 0000 0000 803f 0000 80bf 0000 0000
00000170: 0000 803f 0000 00c0 0000 0000 0000 0040
00000180: 0000 80bf 0000 0000 0000 803f 0000 80bf
00000190: 0000 0000 0000 803f 0000 00c0 0000 0000
000001a0: 0000 0040 0000 80bf 0000 0000 0000 803f
000001b0: 0000 80bf 0000 0000 0000 803f 0000 00c0
000001c0: 0000 0000 0000 0040 0000 80bf 0000 0000
000001d0: 0000 803f 0000 80bf 0000 0000 0000 803f
000001e0: 0000 00c0 0000 0000 0000 0040 0000 80bf
000001f0: 0000 0000 0000 803f 0000 80bf 0000 0000
00000200: 0000 803f 0000 00c0 0000 0000 0000 0040
00000210: 0000 80bf 0000 0000 0000 803f 0000 80bf
00000220: 0000 0000 0000 803f 0000 00c0 0000 0000
00000230: 0000 0040 0000 80bf 0000 0000 0000 803f

sobel_y f4 [16, 1, 3, 3]
-1.0 -2.0 -1.0 0.0 0.0 0.0 1.0 2.0
1.0 -1.0 -2.0 -1.0 0.0 0.0 0.0 1.0
2.0 1.0 -1.0 -2.0 -1.0 0.0 0.0 0.0
1.0 2.0 1.0 -1.0 -2.0 -1.0 0.0 0.0
0.0 1.0 2.0 1.0 -1.0 -2.0 -1.0 0.0
0.0 0.0 1.0 2.0 1.0 -1.0 -2.0 -1.0
0.0 0.0 0.0 1.0 2.0 1.0 -1.0 -2.0
-1.0 0.0 0.0 0.0 1.0 2.0 1.0 -1.0
-2.0 -1.0 0.0 0.0 0.0 1.0 2.0 1.0
-1.0 -2.0 -1.0 0.0 0.0 0.0 1.0 2.0
1.0 -1.0 -2.0 -1.0 0.0 0.0 0.0 1.0
2.0 1.0 -1.0 -2.0 -1.0 0.0 0.0 0.0
1.0 2.0 1.0 -1.0 -2.0 -1.0 0.0 0.0
0.0 1.0 2.0 1.0 -1.0 -2.0 -1.0 0.0
0.0 0.0 1.0 2.0 1.0 -1.0 -2.0 -1.0
0.0 0.0 0.0 1.0 2.0 1.0 -1.0 -2.0
-1.0 0.0 0.0 0.0 1.0 2.0 1.0 -1.0
-2.0 -1.0 0.0 0.0 0.0 1.0 2.0 1.0
00000000: 0000 80bf 0000 00c0 0000 80bf 0000 0000
00000010: 0000 0000 0000 0000 0000 803f 0000 0040
00000020: 0000 803f 0000 80bf 0000 00c0 0000 80bf
00000030: 0000 0000 0000 0000 0000 0000 0000 803f
00000040: 0000 0040 0000 803f 0000 80bf 0000 00c0
00000050: 0000 80bf 0000 0000 0000 0000 0000 0000
00000060: 0000 803f 0000 0040 0000 803f 0000 80bf
00000070: 0000 00c0 0000 80bf 0000 0000 0000 0000
00000080: 0000 0000 0000 803f 0000 0040 0000 803f
00000090: 0000 80bf 0000 00c0 0000 80bf 0000 0000
000000a0: 0000 0000 0000 0000 0000 803f 0000 0040
000000b0: 0000 803f 0000 80bf 0000 00c0 0000 80bf
000000c0: 0000 0000 0000 0000 0000 0000 0000 803f
000000d0: 0000 0040 0000 803f 0000 80bf 0000 00c0
000000e0: 0000 80bf 0000 0000 0000 0000 0000 0000
000000f0: 0000 803f 0000 0040 0000 803f 0000 80bf
00000100: 0000 00c0 0000 80bf 0000 0000 0000 0000
00000110: 0000 0000 0000 803f 0000 0040 0000 803f
00000120: 0000 80bf 0000 00c0 0000 80bf 0000 0000
00000130: 0000 0000 0000 0000 0000 803f 0000 0040
00000140: 0000 803f 0000 80bf 0000 00c0 0000 80bf
00000150: 0000 0000 0000 0000 0000 0000 0000 803f
00000160: 0000 0040 0000 803f 0000 80bf 0000 00c0
00000170: 0000 80bf 0000 0000 0000 0000 0000 0000
00000180: 0000 803f 0000 0040 0000 803f 0000 80bf
00000190: 0000 00c0 0000 80bf 0000 0000 0000 0000
000001a0: 0000 0000 0000 803f 0000 0040 0000 803f
000001b0: 0000 80bf 0000 00c0 0000 80bf 0000 0000
000001c0: 0000 0000 0000 0000 0000 803f 0000 0040
000001d0: 0000 803f 0000 80bf 0000 00c0 0000 80bf
000001e0: 0000 0000 0000 0000 0000 0000 0000 803f
000001f0: 0000 0040 0000 803f 0000 80bf 0000 00c0
00000200: 0000 80bf 0000 0000 0000 0000 0000 0000
00000210: 0000 803f 0000 0040 0000 803f 0000 80bf
00000220: 0000 00c0 0000 80bf 0000 0000 0000 0000
00000230: 0000 0000 0000 803f 0000 0040 0000 803f

identity f4 [16, 1, 3, 3]
0.0 0.0 0.0 0.0 1.0 0.0 0.0 0.0
0.0 0.0 0.0 0.0 0.0 1.0 0.0 0.0
0.0 0.0 0.0 0.0 0.0 0.0 1.0 0.0
0.0 0.0 0.0 0.0 0.0 0.0 0.0 1.0
0.0 0.0 0.0 0.0 0.0 0.0 0.0 0.0
1.0 0.0 0.0 0.0 0.0 0.0 0.0 0.0
0.0 1.0 0.0 0.0 0.0 0.0 0.0 0.0
0.0 0.0 1.0 0.0 0.0 0.0 0.0 0.0
0.0 0.0 0.0 1.0 0.0 0.0 0.0 0.0
0.0 0.0 0.0 0.0 1.0 0.0 0.0 0.0
0.0 0.0 0.0 0.0 0.0 1.0 0.0 0.0
0.0 0.0 0.0 0.0 0.0 0.0 1.0 0.0
0.0 0.0 0.0 0.0 0.0 0.0 0.0 1.0
0.0 0.0 0.0 0.0 0.0 0.0 0.0 0.0
1.0 0.0 0.0 0.0 0.0 0.0 0.0 0.0
0.0 1.0 0.0 0.0 0.0 0.0 0.0 0.0
0.0 0.0 1.0 0.0 0.0 0.0 0.0 0.0
0.0 0.0 0.0 1.0 0.0 0.0 0.0 0.0
00000000: 0000 0000 0000 0000 0000 0000 0000 0000
00000010: 0000 803f 0000 0000 0000 0000 0000 0000
00000020: 0000 0000 0000 0000 0000 0000 0000 0000
00000030: 0000 0000 0000 803f 0000 0000 0000 0000
00000040: 0000 0000 0000 0000 0000 0000 0000 0000
00000050: 0000 0000 0000 0000 0000 803f 0000 0000
00000060: 0000 0000 0000 0000 0000 0000 0000 0000
00000070: 0000 0000 0000 0000 0000 0000 0000 803f
00000080: 0000 0000 0000 0000 0000 0000 0000 0000
00000090: 0000 0000 0000 0000 0000 0000 0000 0000
000000a0: 0000 803f 0000 0000 0000 0000 0000 0000
000000b0: 0000 0000 0000 0000 0000 0000 0000 0000
000000c0: 0000 0000 0000 803f 0000 0000 0000 0000
000000d0: 0000 0000 0000 0000 0000 0000 0000 0000
000000e0: 0000 0000 0000 0000 0000 803f 0000 0000
000000f0: 0000 0000 0000 0000 0000 0000 0000 0000
00000100: 0000 0000 0000 0000 0000 0000 0000 803f
00000110: 0000 0000 0000 0000 0000 0000 0000 0000
00000120: 0000 0000 0000 0000 0000 0000 0000 0000
00000130: 0000 803f 0000 0000 0000 0000 0000 0000
00000140: 0000 0000 0000 0000 0000 0000 0000 0000
00000150: 0000 0000 0000 803f 0000 0000 0000 0000
00000160: 0000 0000 0000 0000 0000 0000 0000 0000
00000170: 0000 0000 0000 0000 0000 803f 0000 0000
00000180: 0000 0000 0000 0000 0000 0000 0000 0000
00000190: 0000 0000 0000 0000 0000 0000 0000 803f
000001a0: 0000 0000 0000 0000 0000 0000 0000 0000
000001b0: 0000 0000 0000 0000 0000 0000 0000 0000
000001c0: 0000 803f 0000 0000 0000 0000 0000 0000
000001d0: 0000 0000 0000 0000 0000 0000 0000 0000
000001e0: 0000 0000 0000 803f 0000 0000 0000 0000
000001f0: 0000 0000 0000 0000 0000 0000 0000 0000
00000200: 0000 0000 0000 0000 0000 803f 0000 0000
00000210: 0000 0000 0000 0000 0000 0000 0000 0000
00000220: 0000 0000 0000 0000 0000 0000 0000 803f
00000230: 0000 0000 0000 0000 0000 0000 0000 0000

update_mlp.0.weight f4 [128, 48]
0.09610246 -0.028374435 -0.08759038 -0.0012239206 0.12389775 0.14752498 -0.16397384 0.039695323
0.08283181 0.08105919 0.13910897 -0.040751006 0.063452624 -0.21083352 0.0011320626 0.015383153
-0.09086329 0.10192761 -0.123688966 0.009996479 -0.23363353 -0.000823139 -0.05517918 -0.16189195
0.049647596 -0.0762902 -0.16181752 -0.048407473 0.012199648 -0.08671303 -0.14037044 -0.07237777
0.4277144 -0.5449083 0.2816959 -0.04063368 -0.2733765 0.25188872 -0.29607174 -0.06136817
0.26557666 0.37695083 -0.44505307 -0.1455372 -0.0525874 0.06285905 0.08519996 0.030438289
0.26679084 -0.11250813 -0.12351908 -0.034932695 -0.074041605 0.19077499 0.14795607 -0.15456349
0.04318374 -0.179486 -0.063394316 -0.07862176 -0.2350604 0.03749756 -0.35186744 0.35887852
0.18765743 0.022505961 -0.10364478 -0.25682682 -0.18910807 -0.15766506 -0.04392752 -0.07353993
0.1428525 0.07110364 -0.058905426 -0.12763865 -0.11769224 -0.12620512 0.08728836 0.24016486
0.10780204 -0.053848263 -0.29978055 -0.07131091 0.05473913 0.28396323 0.4086862 -0.44742906
0.011940987 0.29244414 -0.36406544 0.4286497 -0.40606335 0.38100556 -0.08630332 -0.003699499
0.25864384 -0.02215226 -0.22684464 0.07632024 0.17533514 0.021642882 0.2886662 0.00254599
0.09667764 -0.097116515 0.14901036 -0.009446971 -0.1007967 0.049994007 -0.08313106 -0.16001008
-0.093624935 -0.22466585 0.40794548 -0.056850217 0.02001464 -0.10475058 -0.1523825 -0.21867983
-0.097566836 -0.025776384 0.13546062 0.36280537 0.118401974 -0.012706178 -0.028956765 -0.18329158
-0.21162486 -0.12028949 0.36807376 0.09940636 -0.11708081 0.5391375 0.095815904 -0.44812372
0.20326194 0.41654944 -0.32322896 0.9219982 0.09597786 0.24675031 0.01701106 -0.06558108
-0.18227711 0.0113135325 0.36315018 -0.21353985 -0.08243569 -0.069647744 0.25254768 0.13456751
-0.13330726 0.00065354066 -0.12726939 0.026772957 -0.19058017 0.3917829 0.16795495 -0.25470415
0.04701094 0.08443919 0.017150292 -0.02735618 0.0433516 0.059961155 -0.055799905 -0.042332087
0.09527593 -0.16564818 -0.07661398 0.057651754 0.017234156 -0.11879745 -0.051098563 -0.026141306
-0.48784387 -0.53593177 -0.0597561 -0.23612818 -0.14356755 0.22229153 -0.2263604 -0.3120405
0.06914343 0.09985595 -0.28728807 0.26253483 -0.1715904 0.02083479 0.18953145 -0.13293427
-0.24493697 -0.0029319935 0.23815218 0.06553259 -0.021214617 0.117174536 -0.07424123 0.05940003
0.0869565 0.0012607186 -0.045235936 0.050411195 0.14930427 0.03850421 -0.32080072 0.074624754
0.039956875 0.049843676 -0.1413544 -0.12613247 -0.08963724 0.20366716 -0.24825357 0.022213832
0.29047042 0.06511824 -0.21317247 0.041750446 -0.29046962 0.14347039 -0.26091105 -0.07675362
0.4494781 -0.22106272 -0.13487518 -0.08781178 0.21509975 0.4194748 -0.046432327 -0.255101
0.3834846 0.38533595 -0.3861792 0.4567188 -0.34921905 0.37061152 0.4258788 0.12507252
0.24819194 -0.13239546 -0.110137366 -0.33797473 -0.20199937 -0.22345191 0.028573204 -0.047326483
0.22529756 0.052966934 0.1648598 0.022304026 -0.05596019 0.16084856 0.11821347 -0.047538005
00000000: 5ed1 c43d 8171 e8bc 9662 b3bd f66b a0ba
00000010: 1bbe fd3d ca10 173e c2e8 27be 9097 223d
00000020: b9a3 a93d 5c02 a63d 9572 0e3e 87ea 26bd
00000030: 73f3 813d bee4 57be b861 943a 9f09 7c3c
00000040: 8816 babd 6cbf d03d a450 fdbd 46c8 233c
00000050: a13d 6fbe ecc7 57ba 9003 62bd 01c7 25be
00000060: 475b 4b3d 093e 9cbd 7eb3 25be ea46 46bd
00000070: 08e1 473c 9a96 b1bd 45bd 0fbe cc3a 94bd
00000080: 62fd da3e 1c7f 0bbf 723a 903e 806f 26bd
00000090: 01f8 8bbe 8ff7 803e b796 97be 315d 7bbd
000000a0: aaf9 873e b3ff c03e ffdd e3be b407 15be
000000b0: e365 57bd 3fbc 803d 517d ae3d b859 f93c
000000c0: cf98 883e aa6a e6bd 92f7 fcbd 9615 0fbd
000000d0: 20a3 97bd 855a 433e cc81 173e e445 1ebe
000000e0: 6fe1 303d 2ecb 37be e1d4 81bd 7204 a1bd
000000f0: acb3 70be 0b97 193d f827 b4be edbe b73e
00000100: 4529 403e 6c5e b83c b743 d4bd ce7e 83be
00000110: 8ca5 41be f372 21be 58ed 33bd 1a9c 96bd
00000120: ed47 123e c99e 913d d146 71bd b5b3 02be
00000130: a108 f1bd ea3b 01be 3dc4 b23d c7ed 753e
00000140: 51c7 dc3d ff8f 5cbd d67c 99be 740b 92bd
00000150: 2336 603d a163 913e 513f d13e 6c15 e5be
00000160: 21a4 433c 3dbb 953e c966 babe f977 db3e
00000170: 89e7 cfbe 2913 c33e ccbf b0bd 4b73 72bb
00000180: f76c 843e a878 b5bc f649 68be c94d 9c3d
00000190: 0e8b 333e 6a4c b13c 0ecc 933e a0da 263b
000001a0: edfe c53d 06e5 c6bd 2c96 183e 78c7 1abc
000001b0: 806e cebd 84c6 4c3d 9e40 aabd afd9 23be
000001c0: 6ebe bfbd ce0e 66be 3bde d03e c6db 68bd
000001d0: bef5 a33c 7987 d6bd 280a 1cbe 9bed 5fbe
000001e0: 1fd1 c7bd ff28 d3bc 30b6 0a3e a0c1 b93e
000001f0: bc7c f23d 932d 50bc bd36 edbc cab0 3bbe
00000200: 30b4 58be 565a f6bd 2a74 bc3e 9095 cb3d
00000210: 10c8 efbd ea04 0a3f 213b c43d 7970 e5be
00000220: e623 503e f845 d53e 447e a5be 1308 6c3f
00000230: 0a90 c43d 1dac 7c3e c75a 8b3c 604f 86bd
00000240: daa6 3abe 655c 393c d2ee b93e 31aa 5abe
00000250: 0bd4 a8bd 7aa3 8ebd ee4d 813e 11cc 093e
00000260: b381 08be 5f52 2b3a e852 02be f652 db3c
00000270: 7327 43be c597 c83e 62fc 2b3e 9568 82be
00000280: 8b8e 403d 74ee ac3d c57e 8c3c 111a e0bc
00000290: 7391 313d d499 753d 718e 64bd 6964 2dbd
000002a0: 0720 c33d ad9f 29be cae7 9cbd 3f24 6c3d
000002b0: a52e 8d3c 144c f3bd ba4c 51bd 4b26 d6bc
000002c0: acc6 f9be d332 09bf d0c2 74bd 96cb 71be
000002d0: 5f03 13be 64a0 633e 05cb 67be c6c3 9fbe
000002e0: 129b 8d3d 4781 cc3d 6c17 93be f76a 863e
000002f0: 65b5 2fbe b9ad aa3c 8814 423e ec1f 08be
00000300: c2d0 7abe b026 40bb 2ade 733e f335 863d
00000310: 47ca adbc 34f9 ef3d c90b 98bd 724d 733d
00000320: 4016 b23d b23e a53a 5149 39bd f87b 4e3d
00000330: 38e3 183e 97b6 1d3d fe3f a4be ddd4 983d
00000340: d2a9 233d e228 4c3d 35bf 10be df28 01be
00000350: bb93 b7bd 208e 503e 2f36 7ebe c8f9 b53c
00000360: 8ab8 943e b65c 853d e249 5abe 8402 2b3d
00000370: 6fb8 94be e7e9 123e 2296 85be 0031 9dbd
00000380: fe21 e63e 445e 62be b81c 0abe aad6 b3bd
00000390: 1c43 5c3e 67c5 d63e d32f 3ebd 999c 82be
000003a0: 1858 c43e c14a c53e 48b9 c5be 0cd7 e93e
000003b0: d7cc b2be cbc0 bd3e c90c da3e 0313 003e
000003c0: 0726 7e3e ad92 07be b38f e1bd 060b adbe
000003d0: ecd8 4ebe 94d0 64be 5a12 ea3c 6ad9 41bd
000003e0: 67b4 663e dbf3 583d 02d1 283e efb6 b63c
000003f0: 8336 65bd 7cb5 243e e719 f23d 36b7 42bd

update_mlp.0.bias f4 [128]
-0.16730817 -0.24037173 0.03910835 -0.31547093 -0.06742382 -0.23567767 -0.8922734 -0.7388038
-0.20867772 -0.015832856 -0.37818468 -0.14221951 -0.026127473 0.25339508 -0.22634633 -1.0274975
-0.03336963 -0.34989423 -0.4742535 -0.0795183 -0.1533356 -0.24575223 -0.0758611 -0.025700953
0.40482494 0.219085 -0.09202781 -0.110830374 -0.2674303 -0.22779956 0.13418038 0.17197376
0.05148405 -0.03237735 0.16106464 -0.44139868 -0.122303694 0.42267698 0.13016151 -0.13110352
-0.40574136 -0.67337894 -0.07928506 -0.6508491 -0.05744705 0.19957194 -0.21011566 -0.011578565
0.048079453 -0.49272573 -0.25344926 0.3954532 -0.39211372 -0.5854104 -0.5172763 -0.16920082
-0.10716754 -0.16516092 0.36160928 0.19367357 0.07392686 0.25401482 -0.12423882 0.14901443
-0.6298636 -0.1342147 -0.21580622 -0.15462689 -0.3273104 0.21102022 0.20778905 0.32604975
-0.5123148 -0.33007863 -0.010478123 -0.33334708 -0.17452219 -0.6454691 -0.14499234 -0.28413737
-0.13230644 -0.21449314 -0.23959003 0.06951405 -0.30618098 0.072691314 -0.09245398 0.13391592
0.21522702 -0.72276723 -0.98533446 -0.030579597 -0.32601342 0.12693128 -0.103676364 -0.33017126
0.2668906 -0.37236404 0.057499025 -0.10166888 -0.21508312 0.12587886 -0.023996957 -0.2740954
-0.19235618 -0.30973485 -0.03223575 -0.27115342 0.08738948 -0.18263489 0.10420142 -0.29074183
0.15345347 0.3309871 -0.30830288 -0.024194093 -0.18222883 -0.53050345 0.16533686 -0.12785862
-0.018737582 0.13016985 -0.28178594 -0.43780008 -0.18122762 -0.61479485 -0.9207177 0.023015175
00000000: d552 2bbe 0224 76be 1430 203d 6885 a1be
00000010: 8015 8abd 7d55 71be 086c 64bf 3f22 3dbf
00000020: 9daf 55be e8b3 81bc 6ca1 c1be fea1 11be
00000030: 4809 d6bc 00bd 813e 55c7 67be 0a85 83bf
00000040: 98ae 08bd 5625 b3be 5bd1 f2be 7eda a2bd
00000050: 0204 1dbe 79a6 7bbe 105d 9bbd ce8a d2bc
00000060: 3745 cf3e d157 603e 1479 bcbd 09fb e2bd
00000070: a0ec 88be 4a44 69be 9566 093e e419 303e
00000080: f0e0 523d 1d9e 04bd 21ee 243e 02ff e1be
00000090: 5c7a fabd 1e69 d83e 0f49 053e 0040 06be
000000a0: 55bd cfbe 9062 2cbf 3560 a2bd 0c9e 26bf
000000b0: 994d 6bbd 965c 4c3e 8f28 57be 06b4 3dbc
000000c0: f6ee 443d 8c46 fcbe 1ac4 81be d878 ca3e
000000d0: 21c3 c8be 75dd 15bf 386c 04bf fb42 2dbe
000000e0: a87a dbbd f21f 29be da24 b93e 5d52 463e
000000f0: f766 973d 3b0e 823e ec70 febd 3d97 183e
00000100: be3e 21bf 946f 09be 4efc 5cbe 8356 1ebe
00000110: 3b95 a7be af15 583e a7c6 543e feef a63e
00000120: 1027 03bf 1100 a9be 6fac 2bbc 78ac aabe
00000130: f2b5 32be 773d 25bf df78 14be 747a 91be
00000140: 577b 07be 17a4 5bbe 1757 75be 625d 8e3d
00000150: c1c3 9cbe 2fdf 943d 8358 bdbd 4121 093e
00000160: 7964 5c3e 4607 39bf e13e 7cbf 1082 fabc
00000170: 3beb a6be 46fa 013e 4654 d4bd 350c a9be
00000180: e2a5 883e 80a6 bebe 1984 6b3d c637 d0bd
00000190: c03e 5cbe 63e6 003e 4495 c4bc 3b56 8cbe
000001a0: 05f9 44be 9195 9ebe a209 04bd 9fd4 8abe
000001b0: 41f9 b23d a404 3bbe 8e67 d53d 1ddc 94be
000001c0: e822 1d3e 2477 a93e e0d9 9dbe b132 c6bc
000001d0: 329a 3abe 13cf 07bf 114e 293e 5fed 02be
000001e0: 8f7f 99bc 3f4b 053e 3f46 90be 5527 e0be
000001f0: bc93 39be 3263 1dbf 28b4 6bbf 528a bc3c

update_mlp.2.weight f4 [16, 128]
0.22223781 -0.17609969 -0.025886629 0.06068833 0.09100522 -0.104502775 -0.37642434 -0.013793509
0.066688344 0.035214484 0.15395314 -0.044248797 0.05954426 0.13247228 0.017927181 -0.022446945
-0.07229069 0.09193933 0.18527055 0.009596509 0.029721854 0.10429419 0.12229007 0.077276506
-0.1553365 0.034869935 -0.021132302 -0.16762058 0.07285123 -0.1773883 0.012609639 -0.14666219
0.06902109 0.046329033 0.1428565 -0.43689153 -0.0551239 0.0021779898 -0.18585818 0.200135
0.014050795 -0.012451171 -0.15619951 0.014435741 -0.15579274 -0.18509285 -0.09331186 -0.034705184
-0.19244057 0.050518278 0.06122321 -0.026510967 0.031644166 -0.2275721 -0.036963113 0.0123836165
0.14492194 0.097927965 -0.15105706 -0.16013572 0.09216167 -0.10173556 -0.11903184 -0.13511689
-0.109430015 0.150559 0.1541593 -0.009568167 -0.14040905 -0.080173366 0.08179287 0.09926358
0.022448331 -0.051814366 0.032957118 -0.0064859455 -0.02015507 0.099315636 -0.08041935 0.023753481
-0.19914842 -0.122947924 -0.16922414 -0.12641414 0.016426524 0.014578738 0.25127104 -0.123423845
-0.1530593 -0.095312566 -0.49296722 -0.07376978 0.19272122 -0.14054911 -0.02197336 0.08157657
-0.04862521 0.12820561 -0.16276903 0.07229984 0.022054488 -0.17151208 -0.1124711 -0.06129488
-0.06970259 0.21970788 -0.10158158 0.10157266 -0.016076973 0.033582523 -0.097542755 -0.0780185
-0.07048815 -0.1411691 0.11677067 -0.23967417 0.048014194 0.121311106 -0.0033115465 -0.15123238
0.058924727 -0.080784425 -0.07572655 -0.23272848 0.034281522 0.03234088 -0.0013770693 0.0028123786
-0.20843862 0.19279143 0.06596264 0.07218712 -0.102551736 0.15934554 0.17461938 0.17131011
0.11373891 0.022332871 0.109928966 -0.04725521 0.0041742832 -0.118222676 0.01708474 -0.17942864
0.15429622 0.11166908 -0.07693805 -0.10881888 0.04829202 0.19038303 0.030070525 0.1621363
0.18522541 -0.14562851 -0.07282549 0.096547194 -0.08411458 -0.030580102 -0.07896694 -0.048664052
0.009747951 -0.15528712 -0.2242959 -0.10440354 0.039231904 -0.19754027 0.25283062 0.2419638
0.033880424 0.15379938 -0.044501908 0.046304382 0.17361051 0.08099944 -0.23451117 -0.18710946
-0.2999403 0.029938823 -0.05260773 0.15583277 0.066633135 -0.06966002 -0.09071074 -0.07893475
-0.10008081 0.049798016 0.16279642 0.11966737 0.1810524 0.22122324 -0.08055887 0.29945374
0.1700813 0.105401315 0.12097294 -0.00407704 -0.19248596 0.22380379 0.018099945 0.1363874
0.02938149 -0.22672305 0.20956263 0.3247596 -0.16079582 0.28956795 -0.1981084 0.095107175
-0.21070339 -0.013235272 -0.10200887 -0.003536057 -0.021673623 -0.21642114 0.23704888 0.120479085
0.050477386 0.14857386 0.13585088 -0.1583773 0.1610594 0.16958122 -0.08796147 0.20837013
-0.023613993 0.034257878 -0.14147824 0.20307767 -0.16337968 0.11891159 0.004358329 0.0453284
0.0880589 -0.09067584 0.055910304 -0.21803792 0.12145738 -0.099646434 0.1496907 -0.10145576
0.07730378 0.025571566 -0.01941641 0.0013628484 0.01740336 -0.010797911 -0.06839632 -0.36156708
0.058134843 -0.06663729 0.05104922 0.077260934 0.0051310756 0.17764615 -0.13348944 0.028586838
00000000: 4f92 633e 7a53 34be 3210 d4bc 5494 783d
00000010: f260 ba3d 8d05 d6bd b1ba c0be 2cfe 61bc
00000020: e693 883d 103d 103d e4a5 1d3e 3a3e 35bd
00000030: afe4 733d d0a6 073e 06dc 923c a8e2 b7bc
00000040: 240d 94bd b04a bc3d 90b7 3d3e ad3a 1d3c
00000050: 3f7b f33c 3198 d53d 3773 fa3d 2543 9e3d
00000060: 8810 1fbe c7d3 0e3d a61d adbc bba4 2bbe
00000070: 0733 953d 47a5 35be a998 4e3c 9d2e 16be
00000080: ee5a 8d3d 83c3 3d3d f948 123e 3fb0 dfbe
00000090: 99c9 61bd 9bbc 0e3b 9b51 3ebe 30f0 4c3e
000000a0: 4e35 663c ffff 4bbc c4f2 1fbe e383 6c3c
000000b0: 2288 1fbe fb88 3dbe 4a1a bfbd 0627 0ebd
000000c0: 240f 45be 41ec 4e3d 30c5 7a3d 872d d9bc
000000d0: 509d 013d a908 69be a266 17bd a7e4 4a3c
000000e0: 6b66 143e 758e c83d b4ae 1abe 9efa 23be
000000f0: 42bf bc3d bc5a d0bd f7c6 f3bd 155c 0abe
00000100: d81c e0bd 232c 1a3e efdb 1d3e cdc3 1cbc
00000110: 64c7 0fbe ef31 a4bd 0583 a73d b44a cb3d
00000120: 90e5 b73c 4d3b 54bd 0bfe 063d 0e88 d4bb
00000130: 3f1c a5bc ff65 cb3d e6b2 a4bd a996 c23c
00000140: 90ed 4bbe 1fcc fbbd 1849 2dbe b572 01be
00000150: eb90 863c a9db 6e3c 99a6 803e a4c5 fcbd
00000160: 94bb 1cbe 3c33 c3bd 3366 fcbe 9c14 97bd
00000170: b658 453e 1bec 0fbe 7a01 b4bc 9e11 a73d
00000180: 3a2b 47bd 5548 033e edac 26be f011 943d
00000190: 9dab b43c dda0 2fbe 4057 e6bd 5710 7bbd
000001a0: 3bc0 8ebd 1afb 603e 010a d0bd 5405 d03d
000001b0: dbb3 83bc d48d 093d 7fc4 c7bd 2ac8 9fbd
000001c0: 175c 90bd a28e 10be 7625 ef3d 256d 75be
000001d0: 88aa 443d f571 f83d 8806 59bb a9dc 1abe
000001e0: 0e5b 713d 4e72 a5bd 8516 9bbd 6050 6ebe
000001f0: c86a 0c3d df77 043d c77e b4ba e24f 383b
00000200: ef70 55be 1e6b 453e 6c17 873d d7d6 933d
00000210: a506 d2bd 7a2b 233e 6ccf 323e eb6b 2f3e
00000220: f2ef e83d 6df3 b63c 7022 e13d ae8e 41bd
00000230: 6dc8 883b bb1e f2bd 4cf5 8b3c 24bc 37be
00000240: d4ff 1d3e c2b2 e43d b291 9dbd 6fdc debd
00000250: dacd 453d c5f3 423e 7656 f63c 0f07 263e
00000260: bbab 3d3e a41f 15be 8825 95bd 89ba c53d
00000270: 4444 acbd 1f83 fabc 6bb9 a1bd f553 47bd
00000280: dfb5 1f3c 9603 1fbe d3ad 65be 86d1 d5bd
00000290: a2b1 203d ff47 4abe 0473 813e 5cc5 773e
000002a0: 33c6 0a3d 967d 1d3e a247 36bd aaa9 3d3d
000002b0: f4c6 313e 09e3 a53d b223 70be 9f99 3fbe
000002c0: c691 99be 4342 f53c 347b 57bd a092 1f3e
000002d0: f476 883d eaa9 8ebd 8dc6 b9bd 8ba8 a1bd
000002e0: 2bf7 ccbd 01f9 4b3d 1bb4 263e 2b14 f53d
000002f0: cd65 393e 5888 623e 0dfc a4bd 0052 993e
00000300: cb29 2e3e a5dc d73d a9c0 f73d b198 85bb
00000310: 0a1b 45be d22c 653e 5646 943c 23a9 0b3e
00000320: 73b1 f03c 162a 68be 9697 563e e446 a63e
00000330: a9a7 24be 4042 943e eedc 4abe 8dc7 c23d
00000340: a1c2 57be c1d8 58bc 07ea d0bd 31bd 67bb
00000350: e28c b1bc 819d 5dbe f1bc 723e bdbd f63d
00000360: 60c1 4e3d bf23 183e 7e1c 0b3e a92d 22be
00000370: c1ec 243e b3a6 2d3e 2525 b4bd fb5e 553e
00000380: 2272 c1bc fd51 0c3d acdf 10be 98f3 4f3e
00000390: 014d 27be eb87 f33d 50d0 8e3b 46aa 393d
000003a0: 3958 b43d 41b4 b9bd 3402 653d 5545 5fbe
000003b0: a6be f83d 6e13 ccbd 8548 193e 0ac8 cfbd
000003c0: 7251 9e3d 767b d13c 2a0f 9fbc 9ba1 b23a
000003d0: 7e91 8e3c b9e9 30bc 5f13 8cbd 521f b9be
000003e0: cd1e 6e3d 2279 88bd fd18 513d fb3a 9e3d
000003f0: 9522 a83b dfe8 353e 75b1 08be f22e ea3c

update_mlp.2.bias f4 [16]
-0.19005838 -0.14236951 -0.25615257 0.14576885 -0.21851997 -0.03721538 -0.20016828 0.11410243
0.084085725 -0.044721816 -0.1431631 -0.17560777 -0.13146222 -0.10024936 0.17890404 -0.17395361
00000000: aa9e 42be 50c9 11be 6e26 83be 6e44 153e
00000010: b3c3 5fbe 286f 18bd eaf8 4cbe 89ae e93d
00000020: 2335 ac3d 392e 37bd 5999 12be 86d2 33be
00000030: 089e 06be 894f cdbd 9f32 373e e520 32be

readout.0.weight f4 [64, 16, 1, 1]
0.8876041 0.09524756 -0.23063375 0.17389813 0.017584082 0.20551299 0.45145756 -0.1650152
0.33976123 -0.08499779 -0.13835876 0.35247326 -0.10451009 -0.078875944 -0.2912117 0.17166393
0.32624844 0.22081129 -0.31245652 -0.07509691 -0.291056 -0.028525455 0.117721096 0.076039664
0.13527475 0.1387904 -0.70640683 -0.26480567 -0.11578009 -0.07657228 0.42035067 0.1190402
0.12681581 0.0426176 0.02016342 0.030957803 -0.36320925 0.011660698 0.38598028 -0.44497314
0.3915274 0.10086175 0.18424651 0.33950716 -0.23631169 0.166186 0.051192 -0.39819652
-0.18171237 -0.14176442 -0.18655787 -0.5178003 0.20554887 -0.077912115 0.274084 -0.14043504
0.00015695402 0.37503257 -0.077915505 0.26444128 -0.13486011 -0.008196695 0.46951914 -0.09244259
-0.07291849 -0.47599396 -0.07537706 0.15871699 -0.61541516 0.12582074 -0.31541592 0.12543756
-0.14067876 0.4121899 -0.28880706 0.030895928 -0.60298157 -0.07137634 0.24486575 -0.27347904
0.06991668 -0.24226844 -0.15900323 -0.044324 -0.21872312 0.07868968 0.24023825 0.06284929
0.79573554 0.068695754 0.16053295 0.05448562 -0.6092881 0.71429336 0.30353975 0.20830478
0.2422112 -0.46533558 -0.30968758 0.18470746 0.010499978 0.27030417 -0.5345587 0.23133196
0.4698275 0.2898764 -0.15607952 0.06266706 0.19217019 0.47415283 -0.15216947 -0.03083949
-0.038956225 0.079347245 -0.13250771 -0.1594376 0.056590267 0.14433114 0.13986704 0.10929137
0.27521384 -0.030297287 -0.95097077 0.11298106 -0.11674271 0.36195818 0.0168524 -0.059032917
-0.14801158 -0.5846246 -0.79758996 -0.4440033 -0.31932473 0.099456504 -0.24673927 -0.16780676
0.16097453 -0.047024112 -0.38720664 0.7570953 0.11229932 0.24829425 -0.09966385 0.08182165
0.29310873 0.33403692 -0.4019511 -0.43815655 0.03587391 0.55167973 -0.11319588 -0.795797
0.15064016 -0.028012475 -0.50259703 -0.18577841 0.13098572 -0.32746708 0.0043205284 -0.4161698
-0.027827023 0.121387646 -0.029852772 -0.3203182 -0.07339884 -0.038157478 0.14363869 -0.4272563
0.3821318 0.23430784 -0.48009768 -0.20008299 -0.56159574 0.17005907 0.25552177 0.33904684
-0.0619357 -0.18586348 -0.13393164 -0.38309172 0.30728227 0.33356014 -0.17696491 -0.38259387
-0.072920606 0.92104906 0.13585863 0.23036507 -0.0468353 0.21066979 0.29312506 -0.43045303
-0.28655285 -0.2935148 -0.68413615 0.2549127 0.33312634 0.3015738 -0.6132131 -0.24496907
0.23580053 0.26088914 -0.5519209 0.17307742 -0.08666816 -0.2950354 0.056307707 0.25717497
0.17015645 -0.44808355 0.2709934 -0.64337975 -0.5524949 0.0944022 0.022904318 0.17456272
0.06624093 0.02853084 -0.18986057 0.051673252 -0.12780705 0.2108034 -0.18841495 0.24396895
0.1790476 0.10123537 0.14111982 0.039078806 -0.13029404 0.04744251 0.41362712 -0.02203999
0.22484335 0.03883237 0.15712692 0.5149874 0.06348942 0.20408656 0.030556066 0.51285756
-0.057468034 -0.27545515 -0.61293304 -0.40663522 -1.1106712 0.023142947 0.28275016 -0.10532822
0.67193896 0.11035912 -1.0418509 -0.06611797 0.23127392 -0.26945537 -0.3975538 -0.18038028
00000000: 063a 633f 2711 c33d 412b 6cbe 5a12 323e
00000010: 7e0c 903c ff71 523e 7225 e73e bff9 28be
00000020: 2ff5 ad3e 5213 aebd ebad 0dbe 6077 b43e
00000030: 6309 d6bd b689 a1bd b319 95be abc8 2f3e
00000040: 090a a73e 5b1c 623e 4dfa 9fbe 69cc 99bd
00000050: 4b05 95be 37ae e9bc c217 f13d afba 9b3d
00000060: 7785 0a3e 121f 0e3e 14d7 34bf 9c94 87be
00000070: 1d1e edbd edd1 9cbd 3438 d73e 59cb f33d
00000080: 01dc 013e cb8f 2e3d c22d a53c 389b fd3c
00000090: 90f6 b9be 830c 3f3c 359f c53e 85d3 e3be
000000a0: 4876 c83e 9b90 ce3d 1eab 3c3e e2d3 ad3e
000000b0: b1fb 71be aa2c 2a3e b4ae 513d 6ae0 cbbe
000000c0: cf12 3abe b12a 11be 0709 3fbe 8f8e 04bf
000000d0: 677b 523e 6390 9fbd bd54 8c3e 34ce 0fbe
000000e0: 0694 2439 4504 c03e 2a92 9fbd d964 873e
000000f0: c518 0abe 6e4b 06bc d064 f03e 8a52 bdbd
00000100: 4a56 95bd 7bb5 f3be 4a5f 9abd b586 223e
00000110: d98b 1dbf 27d7 003e 327e a1be b472 003e
00000120: 180e 10be 8e0a d33e 85de 93be 7519 fd3c
00000130: 005d 1abf c22d 92bd 16be 7a3e 7205 8cbe
00000140: 7a30 8f3d 3815 78be bed1 22be 158d 35bd
00000150: f4f8 5fbe 0e28 a13d 0401 763e 21b7 803d
00000160: 53b5 4b3f 5cb0 8c3d c062 243e 502c 5f3d
00000170: 4efa 1bbf eedb 363f 9069 9b3e d94d 553e
00000180: 3606 783e 7740 eebe 5f8f 9ebe f423 3d3e
00000190: 1a08 2c3c 4f65 8a3e d7d8 08bf 49e2 6c3e
000001a0: 3b8d f03e ae6a 943e 4fd3 1fbe 9657 803d
000001b0: 43c8 443e 29c4 f23e 50d2 1bbe 19a3 fcbc
000001c0: 9090 1fbd cf80 a23d 1ab0 07be 9c43 23be
000001d0: 32cb 673d 8bcb 133e 4e39 0f3e 27d4 df3d
000001e0: d4e8 8c3e 0432 f8bc d272 73bf 9d62 e73d
000001f0: cd16 efbd 9552 b93e 0b0e 8a3c 80cc 71bd
00000200: 5990 17be f5a9 15bf db2e 4cbf 6754 e3be
00000210: 887e a3be daaf cb3d 38a9 7cbe 89d5 2bbe
00000220: 82d6 243e 5b9c 40bd f33f c6be ffd0 413f
00000230: 30fd e53d d940 7e3e 901c ccbd 1c92 a73d
00000240: 5912 963e e306 ab3e 89cc cdbe 0e56 e0be
00000250: 85f0 123d e23a 0d3f 3ed3 e7bd 5ab9 4bbf
00000260: 6a41 1a3e 6b7a e5bc 33aa 00bf b23c 3ebe
00000270: 1f21 063e c4a9 a7be 3893 8d3b 3514 d5be
00000280: 7ff5 e3bc 169a f83d cd8d f4bc bf00 a4be
00000290: 2252 96bd 044b 1cbd 0516 133e 56c1 dabe
000002a0: c7a6 c33e 65ee 6f3e 5dcf f5be 8ee2 4cbe
000002b0: bdc4 0fbf f723 2e3e c0d3 823e 8c97 ad3e
000002c0: 4ab0 7dbd ff52 3ebe 6025 09be 9924 c4be
000002d0: 1a54 9d3e 65c8 aa3e 4a36 35be 58e3 c3be
000002e0: 6657 95bd dfc9 6b3f 861e 0b3e d2e4 6b3e
000002f0: 5fd6 3fbd d2b9 573e 7d14 963e 5764 dcbe
00000300: 0eb7 92be 9247 96be 8c23 2fbf eb83 823e
00000310: 898f aa3e e267 9a3e 89fb 1cbf 2cd9 7abe
00000320: b275 713e 4393 853e b04a 0dbf 353b 313e
00000330: 147f b1bd e10e 97be e9a2 663d 70ac 833e
00000340: 7e3d 2e3e 356b e5be a6bf 8a3e 89b4 24bf
00000350: 4e70 0dbf f155 c13d d6a1 bb3c 92c0 323e
00000360: 53a9 873d 82b9 e93c cf6a 42be 55a7 533d
00000370: dadf 02be d9dc 573e d9ef 40be ffd2 793e
00000380: 4158 373e 7d54 cf3d b781 103e 1911 203d
00000390: cd6b 05be 1453 423d efc6 d33e 368d b4bc
000003a0: 563d 663e b10e 1f3d e1e5 203e 37d6 033f
000003b0: be06 823d 11fc 503e b750 fa3c a24a 033f
000003c0: 9a63 6bbd 7508 8dbe 2ee9 1cbf 7e32 d0be
000003d0: 792a 8ebf 4796 bd3c a1c4 903e 52b6 d7bd
000003e0: 3104 2c3f f603 e23d 5f5b 85bf dc68 87bd
000003f0: 12d3 6c3e 0ef6 89be 2c8c cbbe 9cb5 38be

readout.0.bias f4 [64]
0.00015021191 0.55076414 0.19489937 -0.28741264 0.0386885 -0.18041568 1.0267553 -0.3671558
-0.50892997 0.18510088 -0.35590547 -0.4403309 0.59603596 -0.7945442 -0.18765849 -0.8369465
0.33459228 -0.3127397 -0.69500715 0.1806484 -0.1350082 0.9729289 0.5503836 -0.041208435
-0.28429574 -0.2795874 0.6643625 0.1290402 0.59334946 1.0285096 0.16623043 -0.13891953
0.7961067 0.5535188 -0.42633247 0.573809 0.12633596 -0.020963408 -0.0005987902 -1.1489706
0.04747129 0.049866136 0.47040868 0.6567932 -0.10039935 0.240681 0.18487234 -0.17622802
-0.42419362 0.058882307 0.019344416 1.0232221 -0.00074285286 -0.5367805 0.6809029 0.70523226
0.13983682 -0.058088124 0.35961112 -0.39817604 0.76541084 -0.39393094 0.3943143 0.89733326
00000000: 3482 1d39 e1fe 0c3f b393 473e c027 93be
00000010: d577 1e3d e3be 38be b86c 833f d8fb bbbe
00000020: 3c49 02bf 168b 3d3e 3e39 b6be 0d73 e1be
00000030: d095 183f 4067 4bbf 8c29 40be 2042 56bf
00000040: ae4f ab3e 6b1f a0be fdeb 31bf e5fb 383e
00000050: 973f 0abe de11 793f f1e5 0c3f 2dca 28bd
00000060: 368f 91be 1426 8fbe a913 2a3f 1d23 043e
00000070: c0e5 173f 34a6 833f 4f38 2a3e ec40 0ebe
00000080: a6cd 4b3f 68b3 0d3f 4048 dabe 26e5 123f
00000090: 375e 013e 74bb abbc 21f8 1cba 7811 93bf
000000a0: 4171 423d 6f40 4c3d 68d9 f03e 9923 283f
000000b0: 2d9e cdbd 1475 763e 2d4f 3d3e 1e75 34be
000000c0: e82f d9be 932e 713d 2e78 9e3c f1f8 823f
000000d0: 03bc 42ba 726a 09bf a74f 2e3f 1a8a 343f
000000e0: 6231 0f3e d0ed 6dbd f31e b83e bbdd cbbe
000000f0: f7f1 433f 51b1 c9be 90e3 c93e a2b7 653f

readout.2.weight f4 [9, 64, 1, 1]
-0.02877538 -0.019052915 -0.028409459 -0.4594086 0.17414545 -0.13844818 0.2243319 -0.5312189
0.15321936 -0.32310528 -0.11639158 -0.69678235 -0.53190935 0.09083924 -0.090388194 -0.11019321
-0.3711056 -0.14322801 0.097002916 -0.13292526 0.23159881 -0.4927166 -0.042166755 -0.16387886
-0.43824413 0.37315696 0.34940207 0.15073025 0.24149212 -0.9119084 -0.08185013 -0.41875565
-0.76881176 0.09949362 -0.12731291 -0.72365826 -0.20930228 -0.17402136 0.25805336 0.2236066
-0.29101855 0.0735442 0.31356013 -0.7219117 -0.37885562 -0.32913584 0.20517778 -0.12614469
-0.19262761 -0.4351809 -0.65985817 -0.42773736 -0.4253451 0.07885967 -0.4879549 -0.62959206
0.5584318 -0.4027715 -0.3927818 0.09702645 0.4076088 -0.27934897 0.21330135 -0.9523853
-0.3724558 -0.15241812 -0.07174977 -0.1132196 0.3012907 -0.23634133 0.06971356 0.12504044
0.3833458 -0.34738743 -0.31934422 0.10924848 0.67415553 0.1785924 -0.48673546 -0.5434942
-0.5149631 0.3048101 -0.46223322 -0.21976756 -0.060874112 -0.14868802 0.1974766 -0.40184245
-0.61194223 -0.10191605 0.26143232 0.27511907 -0.7325172 0.36402136 0.5801281 0.28889665
-0.40263402 0.08243657 0.04540705 0.0030793934 -1.5555295 0.107553214 -0.20700702 -0.17622927
0.50140065 0.22264084 0.29208905 -0.04675234 -0.7587259 -0.103821754 0.21148922 -0.7084847
-0.59509504 -0.9427227 0.29602054 -0.06178257 0.36828673 0.084411226 0.5851595 0.40114638
-0.01056197 0.06565723 0.030371813 0.076414295 0.4312173 -0.30171692 -0.46350253 0.5873592
0.15593079 -0.27133438 0.13135557 0.2225251 0.12729757 -0.42100668 0.04415936 -0.097222775
-0.38152462 0.41419134 0.22873391 -0.052857615 -0.13859026 0.16399488 0.17545769 0.044352338
-0.08650849 0.1100368 -0.061061304 -0.19965735 -0.46595347 0.0420439 0.20969044 0.055201847
-0.14126721 -0.046825156 -0.11020466 0.14416958 0.34603918 0.0325948 0.47154772 -0.13462572
0.2168758 0.16990449 0.25492108 -0.2917117 -0.04384813 0.29068723 -0.063047394 -0.02034533
0.10816593 0.04169047 0.027683647 0.23030332 0.00835642 0.5768139 -0.0063202493 -0.023319462
-0.0014365568 -0.062466595 -0.0076284492 0.14062333 0.31518674 -0.31964734 0.13393629 0.3746071
-0.35660094 -0.26097882 0.117452644 -0.3663187 0.1406797 -0.12691373 -0.012772245 0.17695633
0.26519132 0.30162397 -0.48536524 0.08644155 -0.08144407 -0.44530287 0.053604808 0.34992403
-0.5513397 0.100224786 -0.06994062 -0.3801377 -0.12660578 -0.23579393 -0.2741935 -0.3933632
0.102749154 -0.3373356 0.24664874 0.292875 0.03900514 -0.19224626 0.4815838 -0.6022642
-0.13158786 -0.07042905 0.14657119 -0.38202873 0.18228115 0.27901933 -0.85168785 0.09353187
-0.074597366 -0.08514043 -0.39342812 0.025189577 0.31422994 0.35015345 0.22901663 -0.26898217
-0.5937763 -0.8085954 -0.13974914 0.25254422 0.025947638 -0.4071798 -0.4355777 -0.19494677
0.19957444 0.17270684 0.15671812 0.14413904 -0.51216304 -0.14287798 0.09982079 0.33129808
-0.20085466 0.017611617 0.1051475 0.16594607 -0.10089049 -0.020054974 0.18125 0.19789712
00000000: 59ba ebbc dc14 9cbc f4ba e8bc 9b37 ebbe
00000010: 2f53 323e 5cc5 0dbe 43b7 653e f6fd 07bf
00000020: 89e5 1c3e 0e6e a5be b55e eebd 5460 32bf
00000030: 362b 08bf ec09 ba3d 721d b9bd faac e1bd
00000040: 8e01 bebe 5daa 12be 77a9 c63d 8f1d 08be
00000050: 3d28 6d3e 5a45 fcbe 0cb7 2cbd dccf 27be
00000060: 8961 e0be 6e0e bf3e d4e4 b23e 0859 1a3e
00000070: b649 773e d472 69bf 0aa1 a7bd 2467 d6be
00000080: d9d0 44bf 50c3 cb3d 515e 02be ab41 39bf
00000090: 5653 56be a832 32be 921f 843e 21f9 643e
000000a0: 6200 95be 579e 963d f48a a03e 35cf 38bf
000000b0: 5df9 c1be 7e84 a8be 201a 523e 132c 01be
000000c0: 2c40 45be 08d0 debe 77ec 28bf 6400 dbbe
000000d0: d5c6 d9be 2e81 a13d 3ad5 f9be f22c 21bf
000000e0: 63f5 0e3f 1138 cebe b21a c9be ceb5 c63d
000000f0: 1ab2 d03e d406 8fbe ab6b 5a3e 86cf 73bf
00000100: 87b2 bebe 7f13 1cbe 8bf1 92bd addf e7bd
00000110: c642 9a3e 7603 72be fcc5 8e3d 9a0a 003e
00000120: e745 c43e c4dc b1be 1681 a3be abbd df3d
00000130: 7595 2c3f ede0 363e 6435 f9be 7022 0bbf
00000140: 9fd4 03bf 1210 9c3e d5a9 ecbe bf0a 61be
00000150: 2257 79bd ac41 18be 4e37 4a3e 4bbe cdbe
00000160: 3fa8 1cbf 5db9 d0bd 75da 853e 68dc 8c3e
00000170: 3f86 3bbf 0261 ba3e 4683 143f 43ea 933e
00000180: 0c26 cebe 81d4 a83d befc 393d a6cf 493b
00000190: 971b c7bf dc44 dc3d a6f9 53be 7275 34be
000001a0: cb5b 003f f6fb 633e b28c 953e 627f 3fbd
000001b0: dc3b 42bf 80a0 d4bd a190 583e 415f 35bf
000001c0: 2658 18bf 4656 71bf 0190 973e b80f 7dbd
000001d0: 1490 bc3e cbdf ac3d 03cd 153f 0f63 cd3e
000001e0: 1d0c 2dbc 4c77 863d 4fce f83c 197f 9c3d
000001f0: 84c8 dc3e a47a 9abe 3450 edbe 2c5d 163f
00000200: 52ac 1f3e 57ec 8abe 1382 063e 9fdd 633e
00000210: 4b5a 023e 308e d7be 72e0 343d bc1c c7bd
00000220: 3257 c3be e310 d43e 3939 6a3e 3a81 58bd
00000230: 9bea 0dbe 46ee 273e 2eab 333e ccaa 353d
00000240: 5d2b b1bd f95a e13d 6b1b 7abd fa72 4cbe
00000250: 7491 eebe 3936 2c3d 17b9 563e 551b 623d
00000260: 5aa8 10be bccb 3fbd fbb2 e1bd 31a1 133e
00000270: 0c2c b13e 2082 053d b46e f13e 53db 09be
00000280: b114 5e3e 71fb 2d3e 0485 823e 3c5b 95be
00000290: 199a 33bd f5d4 943e fe1e 81bd 40ab a6bc
000002a0: 1986 dd3d a0c3 2a3d d1c8 e23c a2d4 6b3e
000002b0: 5ee9 083c 13aa 133f 181a cfbb 7508 bfbc
000002c0: d94a bcba f9dc 7fbd 12f8 f9bb 90ff 0f3e
000002d0: 2860 a13e d1a8 a3be 9826 093e 80cc bf3e
000002e0: 6694 b6be 049f 85be 038b f03d 208e bbbe
000002f0: 570e 103e acf5 01be ae42 51bc 0a34 353e
00000300: 28c7 873e 756e 9a3e cb81 f8be 4408 b13d
00000310: 26cc a6bd bdfe e3be b790 5b3d 3e29 b33e
00000320: 9924 0dbf a742 cd3d 073d 8fbd 69a1 c2be
00000330: f2a4 01be f773 71be 1763 8cbe e766 c9be
00000340: 266e d23d 40b7 acbe 7d91 7c3e b6f3 953e
00000350: dbc3 1f3d 34dc 44be 2792 f63e fd2d 1abf
00000360: f8be 06be 1b3d 90bd c216 163e 4599 c3be
00000370: e9a7 3a3e 9fdb 8e3e 3708 5abf a38d bf3d
00000380: 81c6 98bd 1b5e aebd 696f c9be 5f5a ce3c
00000390: bfe2 a03e 5047 b33e 5683 6a3e 08b8 89be
000003a0: b901 18bf 1c00 4fbf 661a 0fbe 7a4d 813e
000003b0: 2490 d43c df79 d0be 0a04 dfbe 20a0 47be
000003c0: 3e5d 4c3e 10da 303e b77a 203e 2f99 133e
000003d0: 1e1d 03bf 9b4e 12be d86e cc3d e79f a93e
000003e0: d8ac 4dbe 3d46 903c 9357 d73d c4ed 293e
000003f0: ac9f cebd 544a a4bc 9a99 393e 8ba5 4a3e

readout.2.bias f4 [9]
0.35516 -0.29164082 0.0040447363 0.58442676 -0.056683443 0.03810969 -0.17640619 -0.024161505
-0.1588989
00000000: 88d7 b53e f251 95be b589 843b fe9c 153f
00000010: e62c 68bd e818 1c3d d3a3 34be 59ee c5bc
00000020: 65b6 22be
