models/best_cnn_pathmnist.pth (torch, 381188 bytes, 8 tensors)

features.0.weight f4 [32, 3, 3, 3]
000000 fa 79 80 3d 9e c1 42 be cd 92 b0 3d c9 b4 e0 3d
       0.06273265 -0.19019172 0.0862175 0.10971982
000010 4f 27 80 bd 35 cf bc bd c0 3a 25 bd 05 2d 22 be
       -0.062574975 -0.09219209 -0.04033923 -0.15837486
000020 d8 7e 92 bc e1 a6 3c bd 28 5a ab 3c 8b f3 ba 3d
       -0.01788275 -0.046057586 0.020917013 0.091284834
000030 39 9e f8 3d bb 31 64 bd 29 25 63 3d 57 24 b5 bc
       0.121395536 -0.05571149 0.05545536 -0.022112055
000040 31 05 21 be 43 81 a9 3c 00 ca 01 be d1 fa 17 be
       -0.15724637 0.02069152 -0.12674713 -0.14841773
000050 e6 4a 01 3e f6 fa eb bd 9e 3d 27 3e 1b 92 f7 bd
       0.12626228 -0.115224764 0.16332099 -0.12088414
000060 69 53 0d be 45 12 0d 3e b5 2a 33 be 17 4b 1d 3e
       -0.1380135 0.137765 -0.1749676 0.15360676
000070 7c 42 f3 3d 30 ad 12 bd 25 65 33 3e 74 06 92 3d
       0.11877915 -0.035809696 0.17519052 0.07130137
000080 1b 7f 29 3e e0 18 ec 3d e0 b7 65 3d 76 c4 3d bd
       0.16552393 0.11528182 0.05608356 -0.046329938
000090 e9 f0 0e 3c 0b a8 45 be 99 12 30 be 0c f5 a8 bd
       0.00872443 -0.19302385 -0.17194594 -0.08249864
0000a0 44 95 2f 3e c1 83 33 be ff e1 9d 3d 87 74 23 3e
       0.17146784 -0.17530729 0.07709121 0.1596242
0000b0 ed d7 6b be ff 36 20 bc 0e 36 ea 3d 1d 35 56 be
       -0.23031588 -0.009778737 0.11436091 -0.20918699
0000c0 69 fc ea 3d 1f 8d 39 3e 29 9f 38 3d bc 33 82 bd
       0.11473925 0.1812024 0.045073662 -0.06357524
0000d0 73 01 23 3e 64 2a 3e be 99 ac 22 3e 64 36 17 3e
       0.15918522 -0.18570858 0.15886153 0.14766842
0000e0 b1 95 16 3d c2 95 93 be 4e b9 23 be 44 30 2b 3d
       0.03676385 -0.28825194 -0.15988657 0.041794077
0000f0 2e e0 d4 bd ab d2 3a bc 56 d9 42 3e 78 ee f4 3d
       -0.103943214 -0.011402766 0.1902822 0.11959547
000100 20 3f c7 3d b0 9b 82 3e 1e 63 50 be df 2a c1 bd
       0.09728837 0.25509405 -0.2035031 -0.09432005
000110 66 ab 9f 3d 05 68 aa bd 51 7b 55 3e 0d da 12 3e
       0.077963635 -0.083206214 0.20847823 0.14340992
000120 fc b3 88 bd ae d7 1d bd fd 6d ae bd 56 6a 81 be
       -0.06674954 -0.038535766 -0.08517072 -0.2527644
000130 97 86 5d bd e4 be b0 3c f9 ec 0a be 3c 9c 2b be
       -0.054083433 0.021575399 -0.1356696 -0.16758817
000140 1a 0c a6 bc 53 2c 1f 3e 98 b3 66 3e c7 82 76 be
       -0.020269442 0.15544252 0.22529447 -0.24073325
000150 a5 42 8f be d4 2d bb be fa 6d 27 3d fe 6f a0 bd
       -0.27980533 -0.36558402 0.040876366 -0.07833861
000160 62 c7 7d be 9c 90 02 3e eb cb f0 3d a1 e0 2d 3e
       -0.2478309 0.12750477 0.11757644 0.1698022
000170 64 d2 82 be 48 9c 40 bc 67 b7 59 be 89 bc 34 3e
       -0.2555114 -0.01175601 -0.21261369 0.17650045
000180 27 8c ad 3d 29 3e bc bc a6 84 60 3e 77 be 89 3b
       0.084739976 -0.022978859 0.21925601 0.0042036134
000190 fb 78 72 3e 25 ed 32 bc 43 33 b4 3d 8f 63 ed bd
       0.23678963 -0.0109207975 0.0879884 -0.11591255
0001a0 fb 10 1b 3e d5 18 8b bc 70 18 30 be 0b 0f b7 3d
       0.15143196 -0.016979614 -0.17196822 0.08938416
0001b0 f9 ec ab 3c b3 ca 57 be 69 10 7f 3c 87 24 3f be
       0.02098702 -0.21073417 0.015567877 -0.18666278
0001c0 a6 44 e8 be d0 f3 e1 bd 63 61 73 bd ee a5 f8 bb
       -0.45364875 -0.11032832 -0.059419047 -0.0075881397
0001d0 45 53 3b bc 9b 4c 21 be 3b 5a 9a 3a de 85 c2 3b
       -0.011433427 -0.15751879 0.0011776158 0.0059363684
0001e0 d1 e1 0c bd b8 f7 89 be 08 57 cd bd 5f 61 0e bc
       -0.034395043 -0.26946807 -0.100263655 -0.008690207
0001f0 f6 9f 19 bd dd 35 13 3d 62 cd 8f 3e 57 39 01 3e
       -0.037506066 0.03594004 0.28086382 0.1261953
000200 08 3a e4 3d 3e 83 14 3e d8 e3 80 bd 79 17 6b 3e
       0.11143881 0.1450319 -0.06293458 0.22958173
000210 ee a1 74 3e e4 7c b8 3d 83 5a 49 3e 70 c1 cb be
       0.23889896 0.09008196 0.19663434 -0.3979602
000220 8d 8e cc be 1e 29 c8 bd b2 0e 33 3e c4 19 2b 3d
       -0.39952508 -0.097734675 0.17486075 0.04177262
000230 ab a6 04 be 80 8d 98 3e 6e c2 f7 3d cb 53 d3 3c
       -0.12954204 0.29795456 0.120976314 0.025796792
000240 31 b7 4d bd 9a 62 92 be 3b 45 07 3d 31 6b 18 3e
       -0.050223533 -0.28590852 0.033025008 0.1488464
000250 45 a6 92 3d a8 df dc bd a5 ea 1b 3e 54 bf 12 be
       0.0716062 -0.107848465 0.15226229 -0.14330798
000260 f9 a5 1b 3e 6b 9b 1a be b5 5d 21 3d 76 7e 19 3e
       0.15200032 -0.1509835 0.039396007 0.14989647
000270 ca 54 95 3c e0 a1 37 be a8 65 40 bc 99 7e 31 3e
       0.018228907 -0.17932844 -0.011742987 0.1733345
000280 38 23 07 3e 4b 22 fc bc 9a 54 2c be 70 eb 80 be
       0.13197029 -0.03077807 -0.16829148 -0.25179625
000290 54 2d 9a bb e9 7e e7 bd dd 83 7b be 33 62 29 be
       -0.0047051106 -0.11303503 -0.2456202 -0.16541366
0002a0 33 74 02 3b 5d d5 7d be e4 d1 9a be 91 61 69 3e
       0.0019905686 -0.24788423 -0.3023826 0.22791125
0002b0 f7 d3 25 3e 1b d8 50 3e 09 b5 91 3c 57 b3 19 3e
       0.1619414 0.20394938 0.01778652 0.15009819
0002c0 68 2d 2c be c0 53 ca 3c be 5d 28 3e 2e 1c fd 3c
       -0.16814196 0.024698138 0.1644201 0.030897226
0002d0 fa 76 ac bc f1 59 c1 3d 90 a9 7d 3e e5 dd 6c 3e
       -0.021052826 0.09440983 0.24771714 0.23131521
0002e0 e6 cc 9a 3d dc a5 8e bd 3d 55 8c bc 31 14 8f 3e
       0.075586125 -0.06965229 -0.017130489 0.27945092
0002f0 8f 58 82 3e df f6 ad 3d 5c 37 36 be 0b 17 11 3d
       0.2545819 0.084943525 -0.17794555 0.035422366
000300 e7 f6 ac bb b7 14 6f be 42 f1 98 39 d2 97 62 be
       -0.0052784565 -0.23347746 0.0002917145 -0.22128227
000310 81 14 e9 bd 45 ef a7 bd b2 1a 3c 3e f1 5a 4d be
       -0.11380864 -0.08199934 0.18369558 -0.20054223
000320 bc af 49 3e 65 8c a1 3e 80 47 26 be 4d 3c fd 3d
       0.19695944 0.31552425 -0.16238213 0.12365017
000330 38 e9 08 be 2c ee f9 bc 7e a7 95 bc a7 bd 10 3e
       -0.13370216 -0.030509077 -0.018268343 0.14134847
000340 53 92 8a 3c 26 1a a8 3c 53 d2 08 3e 1a ff 2b be
       0.016915476 0.020520281 0.13361482 -0.16796532
000350 d2 0c 9a bd ad bc cf 3d ce b4 a5 3c 1f 3a ea 3c
       -0.075219765 0.10143409 0.020227816 0.028592167
000360 8b 94 8e 3d e0 b5 c8 3d 7e 24 f9 3d 82 03 7c be
       0.06961926 0.09800315 0.121651635 -0.24610713
000370 54 e7 cd 3d 8c e6 c6 bc 30 43 3f be 2a a1 3c 3e
       0.10053888 -0.024279855 -0.18677974 0.18420854
000380 23 ea 7b 3e b8 cf 4b be c4 85 2d be 84 d5 24 be
       0.24601035 -0.19903457 -0.16945559 -0.16097075
000390 bc e1 1f be 1e fd a5 bd 09 9e 61 3d 4e 95 40 be
       -0.15613455 -0.08104919 0.055082355 -0.18806955
0003a0 c5 85 95 bd 0f ba 04 bd 9c 70 dd bd 2f ee b5 bd
       -0.07300905 -0.032404 -0.10812494 -0.088833205
0003b0 11 94 66 3e b8 4a c8 bb 28 cd 4d bd ba 84 49 3e
       0.2251742 -0.006112423 -0.05024448 0.19679537
0003c0 60 07 44 3e 22 61 f6 3d e5 ed 27 3e 2d 94 e3 bc
       0.19143438 0.12030245 0.16399343 -0.027780617
0003d0 b6 3d fd bd 3f 9f c9 bd 61 35 05 be ef 7d 0f be
       -0.12365286 -0.09844827 -0.13008644 -0.14012884
0003e0 0c c2 6d bd 27 4e 27 3c 40 e5 40 be e9 ac 3f be
       -0.058046386 0.010211504 -0.18837452 -0.18718304
0003f0 98 76 db 3d 0d 08 0a be 60 3d 0a 3e cd ee 27 3e
       0.10715979 -0.13479634 0.13499975 0.16399689

features.0.bias f4 [32]
000000 7c e1 eb bd 02 16 e4 be 0f 76 80 3e 7e 50 3b 3e
       -0.11517617 -0.4454804 0.25090072 0.18292424
000010 c5 62 45 bb 66 b2 3c 3e a9 03 c9 3b 70 d8 6e 3e
       -0.0030118686 0.18427429 0.0061344695 0.23324752
000020 b2 97 a8 bc bc 69 28 be aa c4 1b be 91 51 64 be
       -0.020580146 -0.16446584 -0.1521174 -0.2229674
000030 99 be ab 3e 41 bc bd be b8 19 ef bd 23 e3 5d bd
       0.33543852 -0.3705769 -0.11674827 -0.054171693
000040 78 db 27 be fb 0f a7 3e 53 ed 74 be ed 51 cd 3c
       -0.16392314 0.3262938 -0.23918657 0.02506348
000050 da 25 6e 3e 94 97 13 3e 88 d5 2a 3d 5b 51 7f 3e
       0.23256627 0.14413291 0.041707546 0.24933378
000060 7c 71 ac be fc d4 1a 3e 93 35 2d 3d ef 7d ac be
       -0.33680332 0.1512031 0.04228742 -0.3368983
000070 e1 5c 8e be ed 2e 7b 3e 08 14 0a be 49 fe 53 bd
       -0.27805236 0.2452962 -0.13484204 -0.051756177

features.3.weight f4 [64, 32, 3, 3]
000000 b8 d9 75 bc 5c cc da bc fd 89 4a bd 18 9d 0a bd
       -0.0150055215 -0.026708774 -0.049448002 -0.033841223
000010 d9 64 ba bc 75 7e c0 bc a6 62 ef 3b 23 d2 47 3c
       -0.022753166 -0.0234978 0.007305461 0.012196097
000020 82 5a 92 3c fe c8 3c 3e b8 9c 40 3c 71 80 a1 3c
       0.017865423 0.18436047 0.011756115 0.019714566
000030 92 f4 18 3e 7c 72 40 be f1 9a cd bd 6f 4a 01 3e
       0.14937046 -0.18793672 -0.10039318 0.1262605
000040 06 b0 e9 3a b3 24 0a bd 36 03 0e be b1 3f d6 3e
       0.0017828948 -0.033726405 -0.13868412 0.41845468
000050 23 12 5a 3e 66 76 72 ba 7e 8d 27 3f 24 09 40 3f
       0.21295981 -0.000924921 0.65450275 0.7501395
000060 34 cf 97 be 86 83 90 3d 1f b3 5a bd 50 cb ef 3c
       -0.2965027 0.07056336 -0.05339348 0.029271752
000070 ac 86 eb 3e b1 da 26 be e9 08 c5 bb ba 88 51 3f
       0.46001184 -0.16294362 -0.006013025 0.81849253
000080 bd 1c 49 3e 6d 2b 98 be d8 d8 00 3e 09 45 86 bd
       0.19639869 -0.2972063 0.1258272 -0.06556136
000090 30 cc d9 3e 8e 89 6f 3f de 27 a8 3c 78 82 24 3f
       0.42538595 0.93569267 0.020526823 0.6426158
0000a0 b6 33 c4 3f 8a 3e 23 3f 90 0a 20 be 7d e1 7b 3f
       1.5328281 0.637673 -0.1562903 0.9839094
0000b0 03 e9 53 3f 72 67 68 be 54 7e 81 bb 8f 49 34 be
       0.8277742 -0.22695711 -0.003951827 -0.17606185
0000c0 36 dc b6 3d 71 41 07 3f 55 0c f2 bb 3e 35 0d be
       0.08928721 0.5283423 -0.007386724 -0.13789842
0000d0 bc a1 38 3f 19 63 64 3e 65 f0 6d 3d df 43 ef 3c
       0.7212179 0.22303428 0.058090586 0.029207168
0000e0 69 9f 8a be b6 db a1 3d 40 62 d9 3e 5a 90 99 bd
       -0.27074745 0.07903235 0.4245777 -0.07498236
0000f0 b3 dd 09 be 51 94 ff bb 67 71 a8 bd 96 93 00 be
       -0.13463478 -0.007799663 -0.08224755 -0.125563
000100 96 95 b8 3e b8 d4 1d bd 2b 73 12 be c9 8f a6 3e
       0.36051625 -0.038532943 -0.14301746 0.32531574
000110 97 2b 9d 3d ef 72 92 be 73 d4 00 3e 52 6d 59 bd
       0.0767433 -0.28603312 0.12581043 -0.05308277
000120 b8 b3 99 3c 0a 68 09 3e 03 b1 91 3d ed be 9d bd
       0.018762454 0.13418594 0.071138404 -0.07702432
000130 7b d8 71 3c 5a 68 16 3e e4 c3 13 bd 30 ef fb bb
       0.014761086 0.14688244 -0.036075488 -0.0076884255
000140 aa a0 29 3e 4c f2 5f bd 51 1f 6f 3d 77 49 74 bb
       0.16565195 -0.05467443 0.058379475 -0.0037275234
000150 4f 77 f9 bc 23 e7 93 3c c6 05 19 bc 79 7f 5f 3d
       -0.030452399 0.01805455 -0.009339755 0.054564927
000160 7a 35 e0 bc a1 da 31 3d 99 6e 12 3d 10 f2 14 bd
       -0.02736925 0.04342139 0.035750005 -0.03636366
000170 4a 5d 9d b9 65 0d 13 3d eb 3b a3 3c 97 fb 34 3d
       -0.0003001488 0.035901446 0.019926032 0.044185247
000180 b9 cb 4f bd cb c1 c3 3c 68 92 9c bc 0f ae 24 3d
       -0.050731394 0.023896119 -0.01911278 0.040205058
000190 4c 85 8a 3e 3c 23 c2 bd 6f ec 1a be c6 e6 a2 3b
       0.27054822 -0.09479377 -0.15129255 0.004971358
0001a0 04 d1 be bd e7 93 c5 bd aa 49 f9 bb bd c4 69 bd
       -0.0931721 -0.09647351 -0.0076076584 -0.05707239
0001b0 0d d4 12 be f4 38 97 3c a6 c3 25 be f4 1c 9f bd
       -0.14338703 0.018459775 -0.16187915 -0.07769194
0001c0 a9 2b 98 3e 79 f6 66 bb b4 0d 20 be ee 93 93 3e
       0.2972081 -0.0035242124 -0.15630227 0.288238
0001d0 09 e3 04 3e 31 c5 87 bd b0 83 72 bd 52 ee 2d be
       0.12977232 -0.06629408 -0.05920762 -0.16985443
0001e0 1a 87 8d bd 83 25 ac bc 12 19 29 bd 3c 18 47 bd
       -0.06910534 -0.02101398 -0.041283675 -0.048607096
0001f0 c6 05 a2 bd ea 97 04 be f9 ae 46 3d 3c e6 d4 3c
       -0.079112574 -0.12948576 0.04850671 0.02598869
000200 4c 26 71 3e f0 8b ca 3d 25 59 70 be 08 26 8a 3d
       0.23549765 0.09889972 -0.23471506 0.06745535
000210 17 bd 97 3d c5 9c 09 3c 29 b6 81 3c eb d4 9e 3e
       0.07409113 0.008399193 0.015833931 0.3102182
000220 03 c7 f9 be fb 32 f4 3d a6 1d a7 3e 81 72 2b bf
       -0.48784646 0.11923786 0.32639807 -0.66971594
000230 98 5c de 3d ec 92 c8 3e 88 7b 11 be d7 0b 43 3e
       0.108575046 0.39174592 -0.1420728 0.19047485
000240 28 c2 08 3d 8e 58 a3 3c 7a b5 87 bc be de 37 3d
       0.033388287 0.019939687 -0.016566027 0.044890158
000250 2c bc cd bc 07 f8 97 bc 33 c1 c7 3c 07 2b 07 bd
       -0.025114141 -0.018550886 0.024384117 -0.03300002
000260 a8 e7 5a bd 82 0e 07 bd ab 76 22 3e 0e df 9d be
       -0.05344358 -0.03297282 0.1586558 -0.3083424
000270 ac 93 06 3d 48 49 d1 3e e3 98 26 be 7c 09 b8 be
       0.032855675 0.40876222 -0.16269259 -0.35944736
000280 bf 07 ba 3c 33 a3 fb bd 42 39 f8 3d 31 7f 1a bd
       0.022708772 -0.12286987 0.12120296 -0.037718955
000290 c0 2b 7f be 96 3a 36 3d a9 7c 83 bd 6e 89 54 be
       -0.24919033 0.044489466 -0.064202614 -0.2075555
0002a0 cb be da 3c 36 03 82 3d 0f dc 80 3d 32 11 11 bd
       0.026702305 0.06348269 0.06291973 -0.03541679
0002b0 ea 03 c0 bc 1b d1 41 be 69 b6 83 bd a0 2a a8 ba
       -0.023439366 -0.18927424 -0.06431276 -0.0012830086
0002c0 d1 05 b0 bc 5b 75 9a bd 6b b2 0b 3e 6d 01 30 3d
       -0.021487148 -0.07541915 0.1364228 0.04297011
0002d0 a0 7c d1 3d 3a 08 b6 3c 28 c8 e2 bd 60 59 a1 3d
       0.102288485 0.02222072 -0.11073333 0.07878375
0002e0 66 23 7b 3e b9 48 b6 bd 73 a6 04 bd 8c 54 83 3e
       0.24525222 -0.089005895 -0.0323853 0.25650442
0002f0 39 03 79 3d 5d 5d c0 be 84 f5 f0 be 61 01 6b bd
       0.06079409 -0.3757123 -0.47062314 -0.057374362
000300 f8 2c cf be 99 88 1e bf a1 9b 5d bd fc 48 21 be
       -0.40463996 -0.6192718 -0.054103497 -0.15750498
000310 5a ca 98 be 6a 3a 03 bd a7 d1 95 3e 4a c3 82 bc
       -0.29841882 -0.03203813 0.29261515 -0.015962262
000320 06 0d 9f 3d 1f 45 50 bd f2 35 43 bf a6 3c 01 bf
       0.07766156 -0.05084717 -0.7625419 -0.5048317
000330 2b 51 19 3e 3c 76 04 be 00 91 08 3e 2b 78 fb 3c
       0.1497237 -0.12935728 0.13336563 0.030696949
000340 da 94 b1 3e ec 65 ad bd 02 06 92 be 8d f3 93 bc
       0.34683877 -0.08466706 -0.2852021 -0.01806047
000350 01 a6 dc bd 14 a6 88 bd 0b 81 1e 3c 5d 87 79 bc
       -0.1077385 -0.06672302 0.009674321 -0.015230027
000360 ea 25 f0 3d 41 ba 9f 3d ac 00 73 3b 8b 86 02 3e
       0.117259815 0.07799197 0.0037079258 0.12746637
000370 58 8e 0f 3c d1 28 5a 3d e5 82 31 3e 1f f2 84 3c
       0.008761965 0.05326158 0.17335089 0.016228734
000380 01 3e fb 3d 9a 29 4b bd 5e f3 4c 3e 05 0f 1f be
       0.12267686 -0.04960022 0.20014712 -0.15533073
000390 83 81 31 3e a1 0c 01 3f bf 3c ba 3d 09 d7 7d be
       0.17334561 0.50409895 0.09093618 -0.2478906
0003a0 cc 8e 6f 3e 69 e5 34 bc ab ad fb bd 68 32 39 3e
       0.23394316 -0.011041024 -0.12288984 0.18085635
0003b0 ba 9c 17 be fd 87 0a be 86 5d 99 3e df c7 b3 3d
       -0.1480588 -0.13528438 0.29954165 0.08778357
0003c0 76 1f b7 be 23 a9 29 3e 65 73 9e 3d 0d 2a 7b be
       -0.3576619 0.16568427 0.077368535 -0.2452776
0003d0 26 ae ba be 6c ec 27 bd 32 ce 33 3d 74 35 38 be
       -0.3646099 -0.040996954 0.043897815 -0.17989141
0003e0 b8 4e 93 bd b7 a1 9f 3d 2e 7b 38 3e 75 56 24 3d
       -0.07192749 0.077945165 0.1801574 0.040121514
0003f0 f5 18 6c 3d e8 08 e9 3a 18 b3 10 3b d6 c3 1d 3d
       0.05764099 0.0017779144 0.0022079404 0.03851684

features.3.bias f4 [64]
000000 dd 77 b8 bd 52 bf 9e 3d a9 fd 41 3e 29 36 67 be
       -0.09007237 0.07751335 0.1894442 -0.22579254
000010 1d 64 cd bd 4c 77 12 be 0f cd c6 3e 65 db 91 3b
       -0.10028861 -0.1430332 0.38828322 0.0044512027
000020 f8 72 e2 3d 5e 5e 68 bd 79 e6 0f be 74 68 bb bd
       0.11057085 -0.05673062 -0.14052762 -0.09150782
000030 db 57 db bd bc e0 ae ba 82 a1 8b 3e d1 b1 7f bd
       -0.107101165 -0.0013342123 0.27271658 -0.06242544
000040 c2 34 8e 3e b9 3f 9a be e3 ea 7e bd 73 4b 51 be
       0.27774626 -0.30126742 -0.062235724 -0.20438938
000050 8d c7 d2 3e 70 18 fd 3a 74 de a1 be 0d 55 a8 3e
       0.4116787 0.0019309651 -0.3161503 0.3287739
000060 07 ff 00 be f1 66 1b 3d 3f 03 a9 bd 2a d9 8d be
       -0.12597285 0.03793997 -0.08252572 -0.27704746
000070 3b c4 8e 3e a2 33 3f bc d8 2a 5b 3e a6 ad 24 3c
       0.27884087 -0.011670025 0.21403062 0.010051167
000080 0a f1 a8 3e 86 71 5c bd a9 68 da bd 0e c6 c3 3d
       0.32996398 -0.053819202 -0.106644936 0.0955926
000090 cd d2 df bb 24 75 79 be 90 47 64 bd 44 85 fa 3d
       -0.0068305493 -0.24361092 -0.05573231 0.1223245
0000a0 dc 30 a2 bd 4b a0 24 bd 3a 21 b5 bd 4f 19 3e bd
       -0.079194754 -0.04019193 -0.08844228 -0.046410855
0000b0 ff a5 1e bd d7 5d 09 3e ff 7f ca 3d b1 e4 b5 3e
       -0.038732525 0.13414703 0.098876946 0.3552604
0000c0 65 88 05 3f a3 1e 4f be 09 dc ee bd 17 a9 3a 3e
       0.52161247 -0.2022653 -0.11663062 0.18228565
0000d0 01 9e 1c bd 84 18 8b bd 9d be e9 3d 3f b7 ab bd
       -0.03823662 -0.06791785 0.1141331 -0.08384561
0000e0 81 71 2c be 84 bc e7 bd a0 a1 a2 3e e8 7c 32 3e
       -0.16840173 -0.113152534 0.31763935 0.1743046
0000f0 35 cd f2 bc fe ac 05 3e cf 5a fc bc 7c ac f1 3d
       -0.029638866 0.13054273 -0.03080502 0.11800477

features.6.weight f4 [128, 64, 3, 3]
000000 44 f9 64 be ce 6f 2e be 36 fa 82 be 81 5d 1d be
       -0.22360712 -0.17034838 -0.2558152 -0.153677
000010 b8 90 b4 bd ce 2f 37 be c7 bd dd bd 91 7f 44 bd
       -0.088166654 -0.1788933 -0.10827213 -0.04797322
000020 ba ba 33 be 22 de 1a 3e 27 ac 39 3e 36 c6 79 3e
       -0.175517 0.151238 0.18132077 0.24392018
000030 e1 7f 1d 3e 10 a0 08 3e b7 a6 33 3e 53 c6 1a 3e
       0.15380813 0.13342309 0.17544065 0.15114717
000040 2f d8 01 3e 60 c9 6e 3e e1 da ef bd 1c b9 f3 bd
       0.12680124 0.23319006 -0.1171167 -0.11900541
000050 3d 3a 0c be b3 84 08 be cc b3 6d bd 82 48 e6 bd
       -0.13694091 -0.1333187 -0.058032796 -0.112442985
000060 c6 8c aa bd 1a 61 25 be 52 b0 26 be f3 65 3a 3e
       -0.08327632 -0.16150323 -0.16278198 0.18202953
000070 45 52 b5 3d c3 1d 60 3c 62 3c 2e 3e af 61 de 3d
       0.08853582 0.013678971 0.17015222 0.108584754
000080 8d ba ce 3d de e5 36 3e 20 fa 18 3e 4a 1c 0e 3e
       0.100941755 0.17861125 0.14939165 0.13877979
000090 7c f6 38 be e9 30 57 be e8 95 fe bd 1e c0 9e be
       -0.18062776 -0.21014751 -0.12430936 -0.3100595
0000a0 c5 37 a6 be 1f 26 55 be 89 78 86 be 47 f9 87 be
       -0.32464424 -0.20815323 -0.26263836 -0.2655737
0000b0 f6 32 5b be eb 93 47 be f5 90 1f be 07 2e 3f be
       -0.21406159 -0.1949002 -0.1558264 -0.18669902
0000c0 43 61 49 be 0c d4 0e be e2 fc 5a be 42 5f 33 be
       -0.19666009 -0.13948077 -0.2138553 -0.17516807
0000d0 bb 37 2a be 3f 92 4a be dd d4 e6 3d 63 b2 5a 3e
       -0.16622822 -0.19782351 0.11271069 0.21357112
0000e0 1c 2e 45 3e af 80 59 3e f9 a1 93 3e 5e df 70 3e
       0.1925587 0.21240495 0.28834513 0.23522708
0000f0 fc 37 31 3e 57 2c 7f 3e d2 a5 31 3e 00 5f d9 3d
       0.17306513 0.24919258 0.17348412 0.10613823
000100 54 90 ac 3d 40 49 85 3d 59 ae 91 3d 6b 26 77 bc
       0.08425966 0.06508112 0.07113332 -0.015084843
000110 5f a3 9d 3c 75 26 a1 3c ec 73 96 3d 2b 9b f7 3b
       0.01924294 0.019671658 0.07346329 0.0075563393
000120 6c 71 ea 3e 5f f3 e6 3e fe ce c0 3e 5e 6a dc 3e
       0.4578966 0.45107552 0.37657923 0.43049902
000130 9a 8f dc 3e 7a c6 e0 3e 58 70 db 3e 51 1d e0 3e
       0.4307831 0.43901426 0.4285915 0.43772367
000140 bc 07 c3 3e 99 01 08 be 0d ef 69 be 00 e0 49 be
       0.38091838 -0.1328186 -0.22845097 -0.19714355
000150 a3 a9 ba bd 9a fa 7d be e6 05 86 be c2 2a d7 bd
       -0.09114387 -0.24802628 -0.26176375 -0.10506202
000160 c9 af 4f be b1 7c 71 be 65 b8 86 be 9d 11 63 be
       -0.202819 -0.23582722 -0.26312557 -0.22174688
000170 32 b0 83 be e4 7e 1c be dc ab f9 bd 3b a1 58 be
       -0.25720364 -0.1528278 -0.12190983 -0.21155255
000180 e8 b4 fe bd a8 13 5b be 0b a7 48 be 5e 4e 40 3e
       -0.12436849 -0.21394217 -0.19594972 0.18779895
000190 ce 79 a8 3d 56 86 70 3e 21 00 f6 3d fc 8f 4e bd
       0.082263574 0.23488745 0.12011743 -0.050430283
0001a0 bd 73 fc 3c 01 e4 48 3e 4f dd a4 3d ca 2c b5 3d
       0.030816907 0.19618227 0.08050024 0.088464335
0001b0 56 5b f0 bc 27 d2 f9 bc b4 98 9b 3c f1 ba fd bc
       -0.029340427 -0.030495716 0.018993713 -0.03097293
0001c0 bf c0 8d bd 2b 68 40 bb 6e ce 2a bd f1 6a 27 bd
       -0.06921529 -0.0029358964 -0.041700773 -0.04087347
0001d0 82 0d 45 bc 52 e5 82 39 1c 4c 41 bb 80 4b e1 bc
       -0.012027146 0.0002496639 -0.0029494828 -0.027501822
0001e0 50 8d 26 bd 0d 40 c3 b9 4a 3f 95 bc e9 68 70 bd
       -0.04066211 -0.0003724102 -0.018218655 -0.0586938
0001f0 e4 e2 8d bd f0 34 1f 3c 9d 3d 0e bd 38 2c 31 3c
       -0.069280416 0.009717211 -0.034726728 0.010813765
000200 23 e6 c7 ba a7 87 ef 3c 1c cd 86 3d 09 e1 ce bc
       -0.0015251081 0.029239489 0.0658209 -0.02525379
000210 7a 43 0b bd 8f e0 77 3d e4 84 89 bd dd 8f 10 bb
       -0.033999898 0.06051689 -0.067148 -0.0022058405
000220 39 40 b6 3d 17 97 2c 3c d5 2b 45 3d 68 cf 9c 3c
       0.08898968 0.0105340695 0.048137505 0.019141868
000230 40 41 52 bd d2 86 99 3c 0d 93 40 3c be 19 28 bd
       -0.05133176 0.018741045 0.01175381 -0.041040175
000240 7c fb 4a bd 06 1d ba 3d fb 37 57 bd fd a4 de 3d
       -0.04955624 0.09087567 -0.05254362 0.10871313
000250 30 b4 2d 3e de d1 92 3d 9a 00 ab 3d 3a 56 ff 3d
       0.16963267 0.07168935 0.08349724 0.12467618
000260 04 f4 7a 3a d0 70 d8 be 35 4a 98 be e2 f2 a3 be
       0.00095731043 -0.4227357 -0.29744115 -0.32021242
000270 5f 9e 8a be f0 ce 33 be 3a 98 64 be 1c b4 9c be
       -0.27073953 -0.17559409 -0.22323695 -0.30606163
000280 b3 6f 10 be 94 bf 7f be 80 b6 4d bd fb ee 08 bb
       -0.1410511 -0.24975425 -0.050222874 -0.0020894397
000290 d6 97 63 ba d6 33 0f bd 5d 6f ea 3c 66 22 9b 3c
       -0.0008681988 -0.034961544 0.028617555 0.0189373
0002a0 c1 6c 02 3c 8f 55 9b bb 37 46 ab bc 9a 9b a2 bd
       0.007960499 -0.004740424 -0.020907504 -0.07939835
0002b0 ef bd c0 bd b2 cf ae bd 38 61 ac bd fa 68 b4 bd
       -0.09411227 -0.085357085 -0.084169805 -0.08809085
0002c0 bb c6 04 be e7 22 92 bd f7 06 ed bd 47 7f d9 bd
       -0.12966435 -0.07135563 -0.11573594 -0.10619979
0002d0 94 ae 5d 3d 4e 9b 16 3e 3e 8e 05 3e db dd a9 3d
       0.05412157 0.14707682 0.13042542 0.08294269
0002e0 4b be 59 3e 7e 3e 5a 3e 8b 82 7f 3d 07 0c 53 3e
       0.21263997 0.21312901 0.062380355 0.20610057
0002f0 f2 e4 f2 3d 7d a2 97 3d 97 d2 e3 3c 08 fb 16 3d
       0.11860074 0.07404039 0.027810378 0.036860496
000300 9a f7 26 3d 57 0e e7 bb d0 80 12 3d 0f 2b b8 3d
       0.040763475 -0.00705127 0.035767376 0.08992588
000310 c3 9e 89 3d 62 63 10 3d ce 3d 19 3e 0d 99 75 3d
       0.067197345 0.03525103 0.14964983 0.059960414
000320 cc f2 fb 3d 18 ce 49 3d 65 41 eb bb 7a 96 80 3d
       0.12302169 0.049268812 -0.0071794265 0.06278701
000330 65 e9 b3 bc 6c c3 75 bd 17 a6 a6 3d d1 fd d9 bd
       -0.021961877 -0.060000822 0.08137148 -0.10644115
000340 cc f1 dd 3b b2 cc 98 3c d6 31 ad 3c 88 f0 36 3e
       0.006773209 0.018652294 0.021141928 0.17865193
000350 ae e5 10 3e 4f e9 cb bd fb d6 12 3c 49 ae 0b bc
       0.14150116 -0.099566095 0.008962388 -0.00852544
000360 16 c4 47 3d 37 81 8b 3c aa 9e 84 3d 2e aa 4c 3d
       0.048770986 0.017029388 0.06475575 0.049966983
000370 14 40 48 bd bf 2c 2b bd 6d eb 98 3d f1 45 09 3d
       -0.048889235 -0.04179072 0.07466779 0.033513967
000380 08 7e f7 3c 63 57 1a be 9a 37 8a be 86 47 8c be
       0.030211464 -0.15072398 -0.26995546 -0.27398318
000390 83 b6 05 be 1b 46 87 be 71 ae dd be aa ef 25 be
       -0.13057904 -0.26420674 -0.4329715 -0.16204706
0003a0 81 7c 8a be f7 3b c3 be 45 5e 1d bc a6 cd 10 bd
       -0.27048114 -0.38131687 -0.009604995 -0.03535237
0003b0 1c 2b 51 bc 46 44 78 bc 95 7a b8 3c 29 85 03 bd
       -0.012766626 -0.015152996 0.02251939 -0.032109413
0003c0 45 34 c0 3c 7b 9d 80 3d 3f 63 f5 3c 43 c4 e1 bd
       0.023462424 0.06280037 0.02995455 -0.11023762
0003d0 df f1 f1 bd 40 7d e9 bd 7e f3 57 bd 5f d6 4d bd
       -0.118137114 -0.11400843 -0.052722447 -0.05025327
0003e0 e2 ab 67 bd bb f2 d9 3c 6f 6d 9d bd 59 bf 9a bd
       -0.056560405 0.026605 -0.076868884 -0.07556028
0003f0 aa c3 01 3f 7a 6e 30 3f 72 03 08 3f 3c f4 1b 3f
       0.50689185 0.68918574 0.5313026 0.6091955

features.6.bias f4 [128]
000000 d6 b8 2a 3e e0 8c 63 bd f2 61 c5 bc 36 39 0e 3c
       0.16672072 -0.05555427 -0.024094556 0.008680632
000010 d6 a3 dc 3c 0f f8 60 bd b5 93 8f bc fb 0b 9b 3d
       0.026933592 -0.054924067 -0.017526487 0.075706445
000020 7b 06 f5 bd f2 66 33 bc 75 b3 21 3e 51 cf 9a bd
       -0.11964127 -0.010949837 0.15791114 -0.07559074
000030 d1 0b c2 3d 86 a5 3c bc 54 6b ed 3d 91 2d d1 bc
       0.0947491 -0.011514073 0.11592737 -0.025534423
000040 b9 c8 92 bd 07 1b 04 bd eb 3b f6 bb 5d cc a2 bd
       -0.07167191 -0.032252338 -0.007514467 -0.079491355
000050 18 c1 1c 3d 6f 69 0a bd 42 1e 26 bd 58 d9 b3 3d
       0.038270086 -0.033791956 -0.0405562 0.087816894
000060 33 e8 bb 3d 1f cd 99 bd d8 24 e2 3e ab f9 c8 bc
       0.09175148 -0.07509827 0.44168735 -0.024533113
000070 80 1d 35 3c ef 4c 7f bc 9f 64 bf 3d 7f 53 c0 bb
       0.011054397 -0.015582307 0.09345364 -0.0058693285
000080 4c 08 85 3e 7e 99 2e be f9 17 78 3e f2 32 39 be
       0.25982893 -0.1705074 0.24227895 -0.1808584
000090 da 43 48 3e 0a f6 02 3d 60 14 8b 3e 1a 6c 9d 3e
       0.19557133 0.031972922 0.27163982 0.30746537
0000a0 b6 fc a9 3d ae 70 fe 3d 39 f3 23 be 62 18 ae 3e
       0.08300154 0.12423836 -0.16010751 0.34002978
0000b0 1b bb f5 bc a4 cd 9e 3d bd 77 19 bd d5 d3 8d bd
       -0.029996445 0.077540666 -0.037467707 -0.069251694
0000c0 59 bb 1e 39 05 21 45 3e 8e c6 4d bd 4c 8f 96 3d
       0.00015137847 0.19250877 -0.050238185 0.073515505
0000d0 ea d5 71 3a 49 d3 03 be 71 1e 8d 3b 9a 3b 5c bc
       0.0009225296 -0.12873568 0.0043066074 -0.0134419445
0000e0 34 c9 4e bd 0e a7 20 bd ef 00 3d 3e 10 c2 c5 bc
       -0.05048485 -0.039221816 0.18457387 -0.024140388
0000f0 c2 27 12 3d dc d2 6f bd d8 30 8b 3e b0 2e 0b 3e
       0.035682447 -0.0585507 0.27185702 0.13592029
000100 6a 5a 23 3e 0a c8 1e 3e c5 63 6e 3e 2f e8 45 bd
       0.15952459 0.15505996 0.23280247 -0.04831713
000110 7c 01 8a bd a7 16 9e bd 5c b9 a0 3c 54 f2 56 3d
       -0.06738564 -0.07719164 0.019619636 0.052477196
000120 7a 15 3f bd d2 51 3a 3e ad 8d 41 bd e8 a0 bf 3c
       -0.04665134 0.18195274 -0.047254253 0.023392156
000130 8a 00 43 bc 0c c5 b0 bd 12 61 b1 3e 1f c5 6b bd
       -0.011901984 -0.08631334 0.3464437 -0.057561036
000140 ef e1 47 bd 03 54 18 bd e6 24 14 3d d8 ad da 3d
       -0.04879945 -0.037189495 0.036168 0.10677689
000150 c5 bd 88 bc c8 8b 04 bd bb c2 56 be 7e 1c 1b be
       -0.016692052 -0.03235987 -0.20972721 -0.15147588
000160 54 2e c4 3e 3a 1c 0d bb 14 bb da bd 63 b5 90 bd
       0.38316596 -0.0021531717 -0.106802136 -0.07065847
000170 5b 8b 15 be 0d 47 68 3b 23 df d3 bd 25 fa 76 ba
       -0.14603941 0.003544274 -0.10345294 -0.000942143
000180 d7 00 52 3e 48 4a 83 bc 14 56 a1 bc 15 14 5b bc
       0.20508133 -0.016026631 -0.019694366 -0.013371487
000190 43 98 b0 bd 30 31 3e 3e 97 ce 42 3c 20 8e 18 be
       -0.086227916 0.18573451 0.011890075 -0.14897966
0001a0 e7 88 0c 3e 16 55 e1 bb 72 03 60 bd db f9 36 3e
       0.13724099 -0.006876598 -0.054690786 0.1786875
0001b0 81 74 ae bd 66 12 8e 3d dd 6e 80 3e 5f c0 cc 3d
       -0.08518315 0.06937103 0.25084582 0.099976294
0001c0 c5 25 82 bc 8a ca ce bb 71 fa 1b 3e 6a ce 2b bd
       -0.01588715 -0.0063107656 0.15232255 -0.0419449
0001d0 70 63 6e bd 59 b2 21 bc f7 b1 dc bc 7a 29 49 3e
       -0.0582003 -0.009869182 -0.026940329 0.19644728
0001e0 0c 46 e0 bd 86 42 12 bd b7 28 b8 3c d7 9d e6 3b
       -0.109508604 -0.035707973 0.022480352 0.007037859
0001f0 f0 c4 12 bd f6 e6 df 3c 34 a1 75 3b 96 fd 97 bd
       -0.035832345 0.02733181 0.0037480118 -0.074214146

fc.weight f4 [9, 128]
000000 63 59 3a 3e fd d6 e8 3e 0e 23 74 bd 1d ba 41 bf
       0.18198161 0.45476523 -0.059603743 -0.7567461
000010 9e f3 97 bd 7e 05 fb 3c 52 22 10 bd e2 0b 6a be
       -0.07419513 0.030642267 -0.03518898 -0.22856095
000020 e2 57 cd 3d 24 64 06 bd 13 43 b4 3d a5 d1 f7 3d
       0.10026528 -0.032810345 0.08801856 0.121005334
000030 cf 67 f5 bd b8 d0 4b 3d f2 88 6f 3e bb 23 7a 3c
       -0.119826905 0.049759597 0.23392084 0.015267308
000040 41 88 0f bc 50 a0 9e 3e 41 36 67 bf f1 58 4d 3d
       -0.008760513 0.30981684 -0.9031716 0.05013365
000050 36 0d c1 be 4a a4 0c bd 0d 1c 49 bd e7 68 87 3e
       -0.37705392 -0.034336366 -0.049099017 0.26447222
000060 e8 18 92 3d 0d 3e 18 bc 2e ba 66 bf a3 b5 13 be
       0.07133657 -0.009292138 -0.9012784 -0.14424758
000070 24 23 0b bd 30 d2 3a 3d a8 82 c8 be 14 c8 85 3c
       -0.03396906 0.045610607 -0.39162183 0.016330756
000080 e4 7d e7 3e 22 25 84 be af c4 c3 bd b8 18 3a 3d
       0.45213234 -0.2580958 -0.09558999 0.04543373
000090 45 3a e7 be bd 4d 51 be af 17 8e bf 09 92 9b bf
       -0.45161644 -0.20439811 -1.1100978 -1.2153941
0000a0 d2 d0 da be cd a8 ab be 20 36 aa be ec bd 90 bf
       -0.42737442 -0.33527222 -0.3324442 -1.130796
0000b0 48 6e 36 bf e9 92 c3 be d2 83 b8 3c 64 b0 5c 3c
       -0.71262026 -0.3819802 0.022523794 0.013469789
0000c0 5e 91 70 bd 71 c9 a5 3d f7 a5 39 bd d1 d3 15 bc
       -0.058732383 0.080950625 -0.045324292 -0.009144739
0000d0 1c 48 66 bd df 3d 34 bf eb ad 51 3e 21 b6 14 3d
       -0.056221113 -0.7040691 0.204765 0.036306504
0000e0 f0 64 f1 3e 5d ce a1 3d a6 dc 88 3e 00 e4 29 3e
       0.47147322 0.07900689 0.2673084 0.16590881
0000f0 1b c3 80 3c 7a 2f 18 be e4 80 a7 bf 17 75 23 bf
       0.015718034 -0.14861861 -1.3086209 -0.6385054
000100 e8 5b fc 3d 9c 01 e9 bc 5e cd 19 bf 26 e2 9f 3d
       0.12322217 -0.02844315 -0.6007899 0.07806806
000110 4a 14 4a 3e 5e 4b 2c 3e ad 84 98 bc fe 85 77 3e
       0.19734302 0.16825625 -0.018617952 0.24172208
000120 f9 e8 69 3d 96 e8 34 bf b4 ed 88 be ac 2c 37 bd
       0.057106946 -0.706674 -0.26743853 -0.044720337
000130 f9 f6 4a be 10 c8 94 bd 60 cf 6a 3e 25 d5 8b bc
       -0.19820775 -0.072647214 0.2293067 -0.017069409
000140 8b 97 26 bd 4e fd cb bd 60 f9 d5 3e 9a 86 c5 3e
       -0.040671866 -0.099604234 0.4179182 0.38579255
000150 e5 cb 5b bc f1 5a 59 bc 42 90 2d bc 3b c3 32 3e
       -0.013415311 -0.013266311 -0.010593476 0.17457287
000160 12 d9 85 bf e3 1c 80 be b8 41 82 bd d9 f7 b0 bd
       -1.045687 -0.2502204 -0.06360191 -0.08641023
000170 1a 0f 30 bf c0 d8 47 3c 56 00 ca be bc 51 56 bc
       -0.68773043 0.012197673 -0.3945338 -0.01308101
000180 02 af 2a bf fb 75 82 be 12 a1 88 3d bd 36 8d bd
       -0.6667329 -0.25480637 0.06671347 -0.06895206
000190 c9 e4 ae be 7a 17 af be ef 09 54 3e a8 7c e2 3d
       -0.34158924 -0.341976 0.20706914 0.110589325
0001a0 1d 06 a2 3e a4 ae 82 3e 31 8a f7 bb 2c 1f b8 3e
       0.3164529 0.25523865 -0.0075543155 0.35961282
0001b0 f7 59 3d be 52 13 f4 bc 26 3e 05 be 23 50 5b 3e
       -0.1849135 -0.029794369 -0.13011989 0.21417288
0001c0 89 ab 28 3d 52 6c 8c bc 2b e4 0d bf a4 fe ba bd
       0.041179214 -0.017141495 -0.5542628 -0.091306
0001d0 d5 2d 63 3e b5 36 5e 3d 71 26 93 3e 8f 99 2a 3f
       0.22185452 0.05425139 0.28740266 0.6664056
0001e0 be e8 2b 3d dd 50 a8 be c1 6f 6a bf 87 7f 4c 3c
       0.041970007 -0.32874194 -0.9157677 0.012481577
0001f0 49 22 9a 3d 22 3d db be 74 c6 65 bd ec 8e 3e bd
       0.075260706 -0.42820078 -0.056097463 -0.04652302
000200 9d bd 17 3e e8 19 b9 bf f1 f5 0d bd 9d fa 70 be
       0.14818425 -1.4461031 -0.034658376 -0.23533101
000210 9b f3 1b 3d 04 63 8c bc d6 fe d0 bd 7f f7 00 bf
       0.038074117 -0.017137058 -0.10204856 -0.5037765
000220 30 80 dc 3d ec 70 48 bd 8e 43 ca bc 4f a1 53 bf
       0.10766637 -0.048935816 -0.024690416 -0.8266801
000230 27 38 d3 3e 13 db 57 3d f2 60 54 be 65 5e cb bc
       0.41253778 0.05269916 -0.20740107 -0.024825284
000240 dc 60 db bc e5 3a d5 3d 0f 24 80 be b6 80 02 3d
       -0.026779585 0.10411624 -0.2502751 0.03186103
000250 76 4c 3b bf 71 01 1f 3d 5c 95 78 3d 0d a0 30 3e
       -0.73163545 0.038819734 0.060689315 0.17248555
000260 aa 87 fb bd 80 f4 06 3d 23 28 c3 3d d0 49 ef be
       -0.12281735 0.032948017 0.0952914 -0.46736002
000270 05 e7 2c bd 0b a2 a5 bd d3 1a 70 3c 85 88 cc 3c
       -0.042212505 -0.08087548 0.014654833 0.024967441
000280 9c 3d 70 3e 7f c2 8d bf 8b 48 af 3e df 9f 69 3f
       0.23461002 -1.107498 0.34235033 0.9125957
000290 19 74 29 3e d5 7b a2 be 8e 94 53 3f 32 c5 43 bd
       0.16548194 -0.317351 0.8264855 -0.047795482
0002a0 53 87 ed bd 4c 91 ce be ad 38 c0 be 11 5c 3c 3f
       -0.11598077 -0.40345228 -0.3754324 0.7357798
0002b0 a0 99 06 3f 1f 4c 3a 3e 8c 44 d1 3c 27 3f 27 bd
       0.52578163 0.181931 0.025545381 -0.04083171
0002c0 d7 e6 1a 3d f4 07 35 be df 37 b2 bc 3f 51 8b bf
       0.037817802 -0.17678815 -0.021755157 -1.0884169
0002d0 e7 00 8b 3d 77 76 03 3e 58 41 0b 3e 17 3c 5e 3d
       0.067872815 0.1283816 0.13599145 0.054256525
0002e0 c0 74 20 3e 37 92 a4 3d d1 9a e0 3c 3a 00 87 3e
       0.15669537 0.08035701 0.027417572 0.2636736
0002f0 ef 58 98 3e 44 85 23 bf d9 f2 50 bd db ba e8 bb
       0.2975535 -0.6387522 -0.051012848 -0.007102353
000300 85 eb 27 be e5 b5 16 bf 78 1d 4c bf 33 58 9c bd
       -0.16398437 -0.588713 -0.79732466 -0.0763401
000310 42 ef 00 bd 6c 96 23 3f 64 05 71 3d 5c a9 d8 3d
       -0.031478174 0.639014 0.05884303 0.10579178
000320 68 64 a0 3d 32 6b bd 3d ce bf 8d bf 2b dd a5 bb
       0.07831651 0.092489615 -1.1074159 -0.0050617657
000330 88 83 4c be d1 c7 73 3d 03 3e 3f 3f 21 66 1c 3d
       -0.1997205 0.05951673 0.74704 0.038183335
000340 33 e1 4f 3d cc 7d be 3d e5 b5 f3 be d3 80 8a be
       0.050751876 0.093013376 -0.47599712 -0.2705141
000350 48 14 29 bc 9f d7 51 3b 34 bd 5d bd 0d dd 2a 3d
       -0.010319777 0.003201939 -0.054135516 0.041714717
000360 76 ae 64 be 96 91 d8 be be d1 73 bc 09 00 e1 3d
       -0.22332177 -0.42298573 -0.014881549 0.10986335
000370 32 d5 65 3e 2e 21 08 3c bb f9 18 bf 8e 1c 8c bc
       0.22444609 0.008308692 -0.5975606 -0.01710346
000380 3d 21 6c 3f 51 ba b6 be a9 8f f7 3c 9d 38 ec bc
       0.9223822 -0.35689023 0.03021987 -0.028835589
000390 e1 61 b5 3d b6 e8 78 3e a3 d7 1d 3e 67 a2 68 be
       0.088565595 0.24307522 0.1541429 -0.22718202
0003a0 d4 c1 5d 3e 6b 5f 5d be 5a 9d 26 3d 03 34 e7 3d
       0.21655971 -0.2161843 0.040677406 0.11289217
0003b0 95 b1 31 be 89 19 95 bf d2 47 48 be 7e 21 8f bd
       -0.17352898 -1.1648418 -0.19558647 -0.0698881
0003c0 f0 d2 9b bd d7 96 28 bd 8c e1 42 3e 9f 74 5e bd
       -0.076085925 -0.041159477 0.19031352 -0.054310437
0003d0 5a 25 42 be 36 1c e5 3b 27 3b e7 bd d1 f5 28 bd
       -0.18959561 0.0069918884 -0.11290579 -0.041250054
0003e0 83 6c e4 bc f3 e4 34 3e bf e1 f8 3e 19 dd f3 bc
       -0.027883774 0.17665462 0.4860973 -0.029768514
0003f0 21 aa b9 bd 9b d1 83 3e 92 e0 d3 3e f7 46 2f 3c
       -0.09065653 0.25745854 0.4138227 0.010698072

fc.bias f4 [9]
000000 b4 eb 17 3e f7 20 16 bc 75 c0 4c bd cf 19 dd 3c
       0.14836007 -0.009163133 -0.04998823 0.026989846
000010 ff f2 51 3e f8 fd 4e bd 84 7a 88 bd 49 47 ed bc
       0.20502852 -0.050535172 -0.06663993 -0.028964655
000020 21 b8 70 3d
       0.05876935
